{"format": "graph-model", "generatedBy": "2.14.0", "convertedBy": "TensorFlow.js Converter v4.11.0", "signature": {"inputs": {"input_ids:0": {"name": "input_ids:0", "dtype": "DT_INT32", "tensorShape": {"dim": [{"size": "-1"}, {"size": "-1"}]}}, "attention_mask:0": {"name": "attention_mask:0", "dtype": "DT_INT32", "tensorShape": {"dim": [{"size": "-1"}, {"size": "-1"}]}}}, "outputs": {"pooler_output": {"name": "Identity_1:0", "dtype": "DT_FLOAT", "tensorShape": {"dim": [{"size": "-1"}, {"size": "320"}]}}, "last_hidden_state": {"name": "Identity:0", "dtype": "DT_FLOAT", "tensorShape": {"dim": [{"size": "-1"}, {"size": "-1"}, {"size": "320"}]}}}}, "modelTopology": {"node": [{"name": "StatefulPartitionedCall/tf_esm_model/esm/encoder/emb_layer_norm_after/batchnorm/ReadVariableOp", "op": "Const", "attr": {"value": {"tensor": {"dtype": "DT_FLOAT", "tensorShape": {"dim": [{"size": "320"}]}}}, "dtype": {"type": "DT_FLOAT"}}}, {"name": "StatefulPartitionedCall/tf_esm_model/esm/encoder/layer_._5/output/dense/Tensordot/Const", "op": "Const", "attr": {"dtype": {"type": "DT_INT32"}, "value": {"tensor": {"dtype": "DT_INT32", "tensorShape": {"dim": [{"size": "1"}]}}}}}, {"name": "StatefulPartitionedCall/tf_esm_model/esm/encoder/layer_._5/output/dense/Tensordot/axes", "op": "Const", "attr": {"dtype": {"type": "DT_INT32"}, "value": {"tensor": {"dtype": "DT_INT32", "tensorShape": {"dim": [{"size": "1"}]}}}}}, {"name": "StatefulPartitionedCall/tf_esm_model/esm/encoder/layer_._5/output/dense/Tensordot/GatherV2_1/axis", "op": "Const", "attr": {"value": {"tensor": {"dtype": "DT_INT32", "tensorShape": {}}}, "dtype": {"type": "DT_INT32"}}}, {"name": "StatefulPartitionedCall/tf_esm_model/esm/encoder/layer_._5/output/dense/Tensordot/Const_1", "op": "Const", "attr": {"value": {"tensor": {"dtype": "DT_INT32", "tensorShape": {"dim": [{"size": "1"}]}}}, "dtype": {"type": "DT_INT32"}}}, {"name": "StatefulPartitionedCall/tf_esm_model/esm/encoder/layer_._5/output/dense/Tensordot/ReadVariableOp", "op": "Const", "attr": {"value": {"tensor": {"dtype": "DT_FLOAT", "tensorShape": {"dim": [{"size": "1280"}, {"size": "320"}]}}}, "dtype": {"type": "DT_FLOAT"}}}, {"name": "StatefulPartitionedCall/tf_esm_model/esm/encoder/layer_._5/intermediate/Gelu/mul/x", "op": "Const", "attr": {"value": {"tensor": {"dtype": "DT_FLOAT", "tensorShape": {}}}, "dtype": {"type": "DT_FLOAT"}}}, {"name": "StatefulPartitionedCall/tf_esm_model/esm/encoder/layer_._5/intermediate/Gelu/add/x", "op": "Const", "attr": {"value": {"tensor": {"dtype": "DT_FLOAT", "tensorShape": {}}}, "dtype": {"type": "DT_FLOAT"}}}, {"name": "StatefulPartitionedCall/tf_esm_model/esm/encoder/layer_._5/intermediate/dense/Tensordot/Const", "op": "Const", "attr": {"value": {"tensor": {"dtype": "DT_INT32", "tensorShape": {"dim": [{"size": "1"}]}}}, "dtype": {"type": "DT_INT32"}}}, {"name": "StatefulPartitionedCall/tf_esm_model/esm/encoder/layer_._5/intermediate/dense/Tensordot/axes", "op": "Const", "attr": {"value": {"tensor": {"dtype": "DT_INT32", "tensorShape": {"dim": [{"size": "1"}]}}}, "dtype": {"type": "DT_INT32"}}}, {"name": "StatefulPartitionedCall/tf_esm_model/esm/encoder/layer_._5/intermediate/dense/Tensordot/GatherV2_1/axis", "op": "Const", "attr": {"dtype": {"type": "DT_INT32"}, "value": {"tensor": {"dtype": "DT_INT32", "tensorShape": {}}}}}, {"name": "StatefulPartitionedCall/tf_esm_model/esm/encoder/layer_._5/intermediate/dense/Tensordot/Const_1", "op": "Const", "attr": {"value": {"tensor": {"dtype": "DT_INT32", "tensorShape": {"dim": [{"size": "1"}]}}}, "dtype": {"type": "DT_INT32"}}}, {"name": "StatefulPartitionedCall/tf_esm_model/esm/encoder/layer_._5/intermediate/dense/Tensordot/ReadVariableOp", "op": "Const", "attr": {"dtype": {"type": "DT_FLOAT"}, "value": {"tensor": {"dtype": "DT_FLOAT", "tensorShape": {"dim": [{"size": "320"}, {"size": "1280"}]}}}}}, {"name": "StatefulPartitionedCall/tf_esm_model/esm/encoder/layer_._5/LayerNorm/batchnorm/ReadVariableOp", "op": "Const", "attr": {"dtype": {"type": "DT_FLOAT"}, "value": {"tensor": {"dtype": "DT_FLOAT", "tensorShape": {"dim": [{"size": "320"}]}}}}}, {"name": "StatefulPartitionedCall/tf_esm_model/esm/encoder/layer_._5/LayerNorm/moments/mean/reduction_indices", "op": "Const", "attr": {"dtype": {"type": "DT_INT32"}, "value": {"tensor": {"dtype": "DT_INT32", "tensorShape": {"dim": [{"size": "1"}]}}}}}, {"name": "StatefulPartitionedCall/tf_esm_model/esm/encoder/layer_._5/LayerNorm/moments/variance/reduction_indices", "op": "Const", "attr": {"dtype": {"type": "DT_INT32"}, "value": {"tensor": {"dtype": "DT_INT32", "tensorShape": {"dim": [{"size": "1"}]}}}}}, {"name": "StatefulPartitionedCall/tf_esm_model/esm/encoder/layer_._5/LayerNorm/batchnorm/add/y", "op": "Const", "attr": {"value": {"tensor": {"dtype": "DT_FLOAT", "tensorShape": {}}}, "dtype": {"type": "DT_FLOAT"}}}, {"name": "StatefulPartitionedCall/tf_esm_model/esm/encoder/layer_._5/LayerNorm/batchnorm/mul/ReadVariableOp", "op": "Const", "attr": {"dtype": {"type": "DT_FLOAT"}, "value": {"tensor": {"dtype": "DT_FLOAT", "tensorShape": {"dim": [{"size": "320"}]}}}}}, {"name": "StatefulPartitionedCall/tf_esm_model/esm/encoder/layer_._5/intermediate/dense/Tensordot/free", "op": "Const", "attr": {"value": {"tensor": {"dtype": "DT_INT32", "tensorShape": {"dim": [{"size": "2"}]}}}, "dtype": {"type": "DT_INT32"}}}, {"name": "StatefulPartitionedCall/tf_esm_model/esm/encoder/layer_._5/intermediate/dense/Tensordot/GatherV2/axis", "op": "Const", "attr": {"value": {"tensor": {"dtype": "DT_INT32", "tensorShape": {}}}, "dtype": {"type": "DT_INT32"}}}, {"name": "StatefulPartitionedCall/tf_esm_model/esm/encoder/layer_._5/intermediate/dense/Tensordot/Const_2", "op": "Const", "attr": {"dtype": {"type": "DT_INT32"}, "value": {"tensor": {"dtype": "DT_INT32", "tensorShape": {"dim": [{"size": "1"}]}}}}}, {"name": "StatefulPartitionedCall/tf_esm_model/esm/encoder/layer_._5/intermediate/dense/Tensordot/concat_1/axis", "op": "Const", "attr": {"dtype": {"type": "DT_INT32"}, "value": {"tensor": {"dtype": "DT_INT32", "tensorShape": {}}}}}, {"name": "StatefulPartitionedCall/tf_esm_model/esm/encoder/layer_._5/intermediate/dense/BiasAdd/ReadVariableOp", "op": "Const", "attr": {"dtype": {"type": "DT_FLOAT"}, "value": {"tensor": {"dtype": "DT_FLOAT", "tensorShape": {"dim": [{"size": "1280"}]}}}}}, {"name": "ConstantFolding/StatefulPartitionedCall/tf_esm_model/esm/encoder/layer_._5/intermediate/Gelu/truediv_recip", "op": "Const", "attr": {"dtype": {"type": "DT_FLOAT"}, "value": {"tensor": {"dtype": "DT_FLOAT", "tensorShape": {}}}}}, {"name": "StatefulPartitionedCall/tf_esm_model/esm/encoder/layer_._5/output/dense/Tensordot/free", "op": "Const", "attr": {"value": {"tensor": {"dtype": "DT_INT32", "tensorShape": {"dim": [{"size": "2"}]}}}, "dtype": {"type": "DT_INT32"}}}, {"name": "StatefulPartitionedCall/tf_esm_model/esm/encoder/layer_._5/output/dense/Tensordot/GatherV2/axis", "op": "Const", "attr": {"value": {"tensor": {"dtype": "DT_INT32", "tensorShape": {}}}, "dtype": {"type": "DT_INT32"}}}, {"name": "StatefulPartitionedCall/tf_esm_model/esm/encoder/layer_._5/output/dense/Tensordot/Const_2", "op": "Const", "attr": {"value": {"tensor": {"dtype": "DT_INT32", "tensorShape": {"dim": [{"size": "1"}]}}}, "dtype": {"type": "DT_INT32"}}}, {"name": "StatefulPartitionedCall/tf_esm_model/esm/encoder/layer_._5/output/dense/Tensordot/concat_1/axis", "op": "Const", "attr": {"value": {"tensor": {"dtype": "DT_INT32", "tensorShape": {}}}, "dtype": {"type": "DT_INT32"}}}, {"name": "StatefulPartitionedCall/tf_esm_model/esm/encoder/layer_._5/output/dense/BiasAdd/ReadVariableOp", "op": "Const", "attr": {"value": {"tensor": {"dtype": "DT_FLOAT", "tensorShape": {"dim": [{"size": "320"}]}}}, "dtype": {"type": "DT_FLOAT"}}}, {"name": "StatefulPartitionedCall/tf_esm_model/esm/encoder/layer_._5/attention/output/dense/Tensordot/Const", "op": "Const", "attr": {"value": {"tensor": {"dtype": "DT_INT32", "tensorShape": {"dim": [{"size": "1"}]}}}, "dtype": {"type": "DT_INT32"}}}, {"name": "StatefulPartitionedCall/tf_esm_model/esm/encoder/layer_._5/attention/output/dense/Tensordot/axes", "op": "Const", "attr": {"value": {"tensor": {"dtype": "DT_INT32", "tensorShape": {"dim": [{"size": "1"}]}}}, "dtype": {"type": "DT_INT32"}}}, {"name": "StatefulPartitionedCall/tf_esm_model/esm/encoder/layer_._5/attention/output/dense/Tensordot/GatherV2_1/axis", "op": "Const", "attr": {"value": {"tensor": {"dtype": "DT_INT32", "tensorShape": {}}}, "dtype": {"type": "DT_INT32"}}}, {"name": "StatefulPartitionedCall/tf_esm_model/esm/encoder/layer_._5/attention/output/dense/Tensordot/Const_1", "op": "Const", "attr": {"value": {"tensor": {"dtype": "DT_INT32", "tensorShape": {"dim": [{"size": "1"}]}}}, "dtype": {"type": "DT_INT32"}}}, {"name": "StatefulPartitionedCall/tf_esm_model/esm/encoder/layer_._5/attention/output/dense/Tensordot/ReadVariableOp", "op": "Const", "attr": {"dtype": {"type": "DT_FLOAT"}, "value": {"tensor": {"dtype": "DT_FLOAT", "tensorShape": {"dim": [{"size": "320"}, {"size": "320"}]}}}}}, {"name": "StatefulPartitionedCall/tf_esm_model/esm/encoder/layer_._5/attention/self/strided_slice_6/stack", "op": "Const", "attr": {"dtype": {"type": "DT_INT32"}, "value": {"tensor": {"dtype": "DT_INT32", "tensorShape": {"dim": [{"size": "1"}]}}}}}, {"name": "StatefulPartitionedCall/tf_esm_model/esm/encoder/layer_._5/attention/self/strided_slice_6/stack_1", "op": "Const", "attr": {"value": {"tensor": {"dtype": "DT_INT32", "tensorShape": {"dim": [{"size": "1"}]}}}, "dtype": {"type": "DT_INT32"}}}, {"name": "StatefulPartitionedCall/tf_esm_model/esm/encoder/layer_._5/attention/self/strided_slice_6/stack_2", "op": "Const", "attr": {"dtype": {"type": "DT_INT32"}, "value": {"tensor": {"dtype": "DT_INT32", "tensorShape": {"dim": [{"size": "1"}]}}}}}, {"name": "StatefulPartitionedCall/tf_esm_model/esm/encoder/layer_._5/attention/self/rotary_embeddings/strided_slice_3/stack", "op": "Const", "attr": {"dtype": {"type": "DT_INT32"}, "value": {"tensor": {"dtype": "DT_INT32", "tensorShape": {"dim": [{"size": "4"}]}}}}}, {"name": "StatefulPartitionedCall/tf_esm_model/esm/encoder/layer_._5/attention/self/rotary_embeddings/strided_slice_3/stack_1/0", "op": "Const", "attr": {"dtype": {"type": "DT_INT32"}, "value": {"tensor": {"dtype": "DT_INT32", "tensorShape": {}}}}}, {"name": "StatefulPartitionedCall/tf_esm_model/esm/encoder/layer_._5/attention/self/rotary_embeddings/strided_slice_3/stack_1/1", "op": "Const", "attr": {"dtype": {"type": "DT_INT32"}, "value": {"tensor": {"dtype": "DT_INT32", "tensorShape": {}}}}}, {"name": "StatefulPartitionedCall/tf_esm_model/esm/encoder/layer_._5/attention/self/rotary_embeddings/strided_slice_2/stack", "op": "Const", "attr": {"dtype": {"type": "DT_INT32"}, "value": {"tensor": {"dtype": "DT_INT32", "tensorShape": {"dim": [{"size": "1"}]}}}}}, {"name": "StatefulPartitionedCall/tf_esm_model/esm/encoder/layer_._5/attention/self/rotary_embeddings/strided_slice_2/stack_1", "op": "Const", "attr": {"value": {"tensor": {"dtype": "DT_INT32", "tensorShape": {"dim": [{"size": "1"}]}}}, "dtype": {"type": "DT_INT32"}}}, {"name": "StatefulPartitionedCall/tf_esm_model/esm/encoder/layer_._5/attention/self/rotary_embeddings/strided_slice_2/stack_2", "op": "Const", "attr": {"dtype": {"type": "DT_INT32"}, "value": {"tensor": {"dtype": "DT_INT32", "tensorShape": {"dim": [{"size": "1"}]}}}}}, {"name": "StatefulPartitionedCall/tf_esm_model/esm/encoder/layer_._5/attention/self/rotary_embeddings/strided_slice_3/stack_1/3", "op": "Const", "attr": {"value": {"tensor": {"dtype": "DT_INT32", "tensorShape": {}}}, "dtype": {"type": "DT_INT32"}}}, {"name": "StatefulPartitionedCall/tf_esm_model/esm/encoder/layer_._5/attention/self/rotary_embeddings/strided_slice_3/stack_2", "op": "Const", "attr": {"dtype": {"type": "DT_INT32"}, "value": {"tensor": {"dtype": "DT_INT32", "tensorShape": {"dim": [{"size": "4"}]}}}}}, {"name": "StatefulPartitionedCall/tf_esm_model/esm/encoder/layer_._5/attention/self/rotary_embeddings/split/split_dim", "op": "Const", "attr": {"dtype": {"type": "DT_INT32"}, "value": {"tensor": {"dtype": "DT_INT32", "tensorShape": {}}}}}, {"name": "StatefulPartitionedCall/tf_esm_model/esm/encoder/layer_._5/attention/self/rotary_embeddings/concat_1/axis", "op": "Const", "attr": {"value": {"tensor": {"dtype": "DT_INT32", "tensorShape": {}}}, "dtype": {"type": "DT_INT32"}}}, {"name": "StatefulPartitionedCall/tf_esm_model/esm/encoder/layer_._5/attention/self/rotary_embeddings/strided_slice_5/stack", "op": "Const", "attr": {"dtype": {"type": "DT_INT32"}, "value": {"tensor": {"dtype": "DT_INT32", "tensorShape": {"dim": [{"size": "4"}]}}}}}, {"name": "StatefulPartitionedCall/tf_esm_model/esm/encoder/layer_._5/attention/self/rotary_embeddings/strided_slice_5/stack_1/0", "op": "Const", "attr": {"dtype": {"type": "DT_INT32"}, "value": {"tensor": {"dtype": "DT_INT32", "tensorShape": {}}}}}, {"name": "StatefulPartitionedCall/tf_esm_model/esm/encoder/layer_._5/attention/self/rotary_embeddings/strided_slice_5/stack_1/1", "op": "Const", "attr": {"dtype": {"type": "DT_INT32"}, "value": {"tensor": {"dtype": "DT_INT32", "tensorShape": {}}}}}, {"name": "StatefulPartitionedCall/tf_esm_model/esm/encoder/layer_._5/attention/self/strided_slice_4/stack", "op": "Const", "attr": {"value": {"tensor": {"dtype": "DT_INT32", "tensorShape": {"dim": [{"size": "1"}]}}}, "dtype": {"type": "DT_INT32"}}}, {"name": "StatefulPartitionedCall/tf_esm_model/esm/encoder/layer_._5/attention/self/strided_slice_4/stack_1", "op": "Const", "attr": {"value": {"tensor": {"dtype": "DT_INT32", "tensorShape": {"dim": [{"size": "1"}]}}}, "dtype": {"type": "DT_INT32"}}}, {"name": "StatefulPartitionedCall/tf_esm_model/esm/encoder/layer_._5/attention/self/strided_slice_4/stack_2", "op": "Const", "attr": {"value": {"tensor": {"dtype": "DT_INT32", "tensorShape": {"dim": [{"size": "1"}]}}}, "dtype": {"type": "DT_INT32"}}}, {"name": "StatefulPartitionedCall/tf_esm_model/esm/encoder/layer_._5/attention/self/query/Tensordot/Const", "op": "Const", "attr": {"dtype": {"type": "DT_INT32"}, "value": {"tensor": {"dtype": "DT_INT32", "tensorShape": {"dim": [{"size": "1"}]}}}}}, {"name": "StatefulPartitionedCall/tf_esm_model/esm/encoder/layer_._5/attention/self/query/Tensordot/axes", "op": "Const", "attr": {"dtype": {"type": "DT_INT32"}, "value": {"tensor": {"dtype": "DT_INT32", "tensorShape": {"dim": [{"size": "1"}]}}}}}, {"name": "StatefulPartitionedCall/tf_esm_model/esm/encoder/layer_._5/attention/self/query/Tensordot/GatherV2_1/axis", "op": "Const", "attr": {"dtype": {"type": "DT_INT32"}, "value": {"tensor": {"dtype": "DT_INT32", "tensorShape": {}}}}}, {"name": "StatefulPartitionedCall/tf_esm_model/esm/encoder/layer_._5/attention/self/query/Tensordot/Const_1", "op": "Const", "attr": {"dtype": {"type": "DT_INT32"}, "value": {"tensor": {"dtype": "DT_INT32", "tensorShape": {"dim": [{"size": "1"}]}}}}}, {"name": "StatefulPartitionedCall/tf_esm_model/esm/encoder/layer_._5/attention/self/query/Tensordot/ReadVariableOp", "op": "Const", "attr": {"value": {"tensor": {"dtype": "DT_FLOAT", "tensorShape": {"dim": [{"size": "320"}, {"size": "320"}]}}}, "dtype": {"type": "DT_FLOAT"}}}, {"name": "StatefulPartitionedCall/tf_esm_model/esm/encoder/layer_._5/attention/self/query/Tensordot/free", "op": "Const", "attr": {"value": {"tensor": {"dtype": "DT_INT32", "tensorShape": {"dim": [{"size": "2"}]}}}, "dtype": {"type": "DT_INT32"}}}, {"name": "StatefulPartitionedCall/tf_esm_model/esm/encoder/layer_._5/attention/self/query/Tensordot/GatherV2/axis", "op": "Const", "attr": {"value": {"tensor": {"dtype": "DT_INT32", "tensorShape": {}}}, "dtype": {"type": "DT_INT32"}}}, {"name": "StatefulPartitionedCall/tf_esm_model/esm/encoder/layer_._5/attention/self/query/Tensordot/Const_2", "op": "Const", "attr": {"dtype": {"type": "DT_INT32"}, "value": {"tensor": {"dtype": "DT_INT32", "tensorShape": {"dim": [{"size": "1"}]}}}}}, {"name": "StatefulPartitionedCall/tf_esm_model/esm/encoder/layer_._5/attention/self/query/Tensordot/concat_1/axis", "op": "Const", "attr": {"dtype": {"type": "DT_INT32"}, "value": {"tensor": {"dtype": "DT_INT32", "tensorShape": {}}}}}, {"name": "StatefulPartitionedCall/tf_esm_model/esm/encoder/layer_._5/attention/self/query/BiasAdd/ReadVariableOp", "op": "Const", "attr": {"value": {"tensor": {"dtype": "DT_FLOAT", "tensorShape": {"dim": [{"size": "320"}]}}}, "dtype": {"type": "DT_FLOAT"}}}, {"name": "StatefulPartitionedCall/tf_esm_model/esm/encoder/layer_._5/attention/self/strided_slice_5/stack", "op": "Const", "attr": {"value": {"tensor": {"dtype": "DT_INT32", "tensorShape": {"dim": [{"size": "1"}]}}}, "dtype": {"type": "DT_INT32"}}}, {"name": "StatefulPartitionedCall/tf_esm_model/esm/encoder/layer_._5/attention/self/strided_slice_5/stack_1", "op": "Const", "attr": {"value": {"tensor": {"dtype": "DT_INT32", "tensorShape": {"dim": [{"size": "1"}]}}}, "dtype": {"type": "DT_INT32"}}}, {"name": "StatefulPartitionedCall/tf_esm_model/esm/encoder/layer_._5/attention/self/strided_slice_5/stack_2", "op": "Const", "attr": {"dtype": {"type": "DT_INT32"}, "value": {"tensor": {"dtype": "DT_INT32", "tensorShape": {"dim": [{"size": "1"}]}}}}}, {"name": "StatefulPartitionedCall/tf_esm_model/esm/encoder/layer_._5/attention/self/Reshape_2/shape/2", "op": "Const", "attr": {"dtype": {"type": "DT_INT32"}, "value": {"tensor": {"dtype": "DT_INT32", "tensorShape": {}}}}}, {"name": "StatefulPartitionedCall/tf_esm_model/esm/encoder/layer_._5/attention/self/Reshape_2/shape/3", "op": "Const", "attr": {"dtype": {"type": "DT_INT32"}, "value": {"tensor": {"dtype": "DT_INT32", "tensorShape": {}}}}}, {"name": "StatefulPartitionedCall/tf_esm_model/esm/encoder/layer_._5/attention/self/transpose_2/perm", "op": "Const", "attr": {"dtype": {"type": "DT_INT32"}, "value": {"tensor": {"dtype": "DT_INT32", "tensorShape": {"dim": [{"size": "4"}]}}}}}, {"name": "StatefulPartitionedCall/tf_esm_model/esm/encoder/layer_._5/attention/self/mul/y", "op": "Const", "attr": {"value": {"tensor": {"dtype": "DT_FLOAT", "tensorShape": {}}}, "dtype": {"type": "DT_FLOAT"}}}, {"name": "StatefulPartitionedCall/tf_esm_model/esm/encoder/layer_._5/attention/self/rotary_embeddings/strided_slice_4/stack", "op": "Const", "attr": {"dtype": {"type": "DT_INT32"}, "value": {"tensor": {"dtype": "DT_INT32", "tensorShape": {"dim": [{"size": "1"}]}}}}}, {"name": "StatefulPartitionedCall/tf_esm_model/esm/encoder/layer_._5/attention/self/rotary_embeddings/strided_slice_4/stack_1", "op": "Const", "attr": {"dtype": {"type": "DT_INT32"}, "value": {"tensor": {"dtype": "DT_INT32", "tensorShape": {"dim": [{"size": "1"}]}}}}}, {"name": "StatefulPartitionedCall/tf_esm_model/esm/encoder/layer_._5/attention/self/rotary_embeddings/strided_slice_4/stack_2", "op": "Const", "attr": {"dtype": {"type": "DT_INT32"}, "value": {"tensor": {"dtype": "DT_INT32", "tensorShape": {"dim": [{"size": "1"}]}}}}}, {"name": "StatefulPartitionedCall/tf_esm_model/esm/encoder/layer_._5/attention/self/rotary_embeddings/strided_slice_5/stack_1/3", "op": "Const", "attr": {"dtype": {"type": "DT_INT32"}, "value": {"tensor": {"dtype": "DT_INT32", "tensorShape": {}}}}}, {"name": "StatefulPartitionedCall/tf_esm_model/esm/encoder/layer_._5/attention/self/rotary_embeddings/strided_slice_5/stack_2", "op": "Const", "attr": {"value": {"tensor": {"dtype": "DT_INT32", "tensorShape": {"dim": [{"size": "4"}]}}}, "dtype": {"type": "DT_INT32"}}}, {"name": "StatefulPartitionedCall/tf_esm_model/esm/encoder/layer_._5/attention/self/rotary_embeddings/strided_slice_7/stack", "op": "Const", "attr": {"dtype": {"type": "DT_INT32"}, "value": {"tensor": {"dtype": "DT_INT32", "tensorShape": {"dim": [{"size": "4"}]}}}}}, {"name": "StatefulPartitionedCall/tf_esm_model/esm/encoder/layer_._5/attention/self/rotary_embeddings/strided_slice_7/stack_1/0", "op": "Const", "attr": {"value": {"tensor": {"dtype": "DT_INT32", "tensorShape": {}}}, "dtype": {"type": "DT_INT32"}}}, {"name": "StatefulPartitionedCall/tf_esm_model/esm/encoder/layer_._5/attention/self/rotary_embeddings/strided_slice_7/stack_1/1", "op": "Const", "attr": {"dtype": {"type": "DT_INT32"}, "value": {"tensor": {"dtype": "DT_INT32", "tensorShape": {}}}}}, {"name": "StatefulPartitionedCall/tf_esm_model/esm/encoder/layer_._5/attention/self/rotary_embeddings/strided_slice_6/stack", "op": "Const", "attr": {"value": {"tensor": {"dtype": "DT_INT32", "tensorShape": {"dim": [{"size": "1"}]}}}, "dtype": {"type": "DT_INT32"}}}, {"name": "StatefulPartitionedCall/tf_esm_model/esm/encoder/layer_._5/attention/self/rotary_embeddings/strided_slice_6/stack_1", "op": "Const", "attr": {"value": {"tensor": {"dtype": "DT_INT32", "tensorShape": {"dim": [{"size": "1"}]}}}, "dtype": {"type": "DT_INT32"}}}, {"name": "StatefulPartitionedCall/tf_esm_model/esm/encoder/layer_._5/attention/self/rotary_embeddings/strided_slice_6/stack_2", "op": "Const", "attr": {"dtype": {"type": "DT_INT32"}, "value": {"tensor": {"dtype": "DT_INT32", "tensorShape": {"dim": [{"size": "1"}]}}}}}, {"name": "StatefulPartitionedCall/tf_esm_model/esm/encoder/layer_._5/attention/self/rotary_embeddings/strided_slice_7/stack_1/3", "op": "Const", "attr": {"dtype": {"type": "DT_INT32"}, "value": {"tensor": {"dtype": "DT_INT32", "tensorShape": {}}}}}, {"name": "StatefulPartitionedCall/tf_esm_model/esm/encoder/layer_._5/attention/self/rotary_embeddings/strided_slice_7/stack_2", "op": "Const", "attr": {"value": {"tensor": {"dtype": "DT_INT32", "tensorShape": {"dim": [{"size": "4"}]}}}, "dtype": {"type": "DT_INT32"}}}, {"name": "StatefulPartitionedCall/tf_esm_model/esm/encoder/layer_._5/attention/self/rotary_embeddings/split_1/split_dim", "op": "Const", "attr": {"value": {"tensor": {"dtype": "DT_INT32", "tensorShape": {}}}, "dtype": {"type": "DT_INT32"}}}, {"name": "StatefulPartitionedCall/tf_esm_model/esm/encoder/layer_._5/attention/self/rotary_embeddings/concat_2/axis", "op": "Const", "attr": {"value": {"tensor": {"dtype": "DT_INT32", "tensorShape": {}}}, "dtype": {"type": "DT_INT32"}}}, {"name": "StatefulPartitionedCall/tf_esm_model/esm/encoder/layer_._5/attention/self/rotary_embeddings/range/start", "op": "Const", "attr": {"value": {"tensor": {"dtype": "DT_FLOAT", "tensorShape": {}}}, "dtype": {"type": "DT_FLOAT"}}}, {"name": "StatefulPartitionedCall/tf_esm_model/esm/encoder/layer_._5/attention/self/rotary_embeddings/strided_slice/stack", "op": "Const", "attr": {"value": {"tensor": {"dtype": "DT_INT32", "tensorShape": {"dim": [{"size": "1"}]}}}, "dtype": {"type": "DT_INT32"}}}, {"name": "StatefulPartitionedCall/tf_esm_model/esm/encoder/layer_._5/attention/self/rotary_embeddings/strided_slice/stack_1", "op": "Const", "attr": {"dtype": {"type": "DT_INT32"}, "value": {"tensor": {"dtype": "DT_INT32", "tensorShape": {"dim": [{"size": "1"}]}}}}}, {"name": "StatefulPartitionedCall/tf_esm_model/esm/encoder/layer_._5/attention/self/rotary_embeddings/strided_slice/stack_2", "op": "Const", "attr": {"value": {"tensor": {"dtype": "DT_INT32", "tensorShape": {"dim": [{"size": "1"}]}}}, "dtype": {"type": "DT_INT32"}}}, {"name": "StatefulPartitionedCall/tf_esm_model/esm/encoder/layer_._5/attention/self/rotary_embeddings/range/delta", "op": "Const", "attr": {"dtype": {"type": "DT_FLOAT"}, "value": {"tensor": {"dtype": "DT_FLOAT", "tensorShape": {}}}}}, {"name": "StatefulPartitionedCall/tf_esm_model/esm/encoder/layer_._5/attention/self/rotary_embeddings/einsum/Einsum/ReadVariableOp", "op": "Const", "attr": {"dtype": {"type": "DT_FLOAT"}, "value": {"tensor": {"dtype": "DT_FLOAT", "tensorShape": {"dim": [{"size": "8"}]}}}}}, {"name": "StatefulPartitionedCall/tf_esm_model/esm/encoder/layer_._5/attention/self/rotary_embeddings/concat/axis", "op": "Const", "attr": {"dtype": {"type": "DT_INT32"}, "value": {"tensor": {"dtype": "DT_INT32", "tensorShape": {}}}}}, {"name": "StatefulPartitionedCall/tf_esm_model/esm/encoder/layer_._5/attention/self/rotary_embeddings/strided_slice_1/stack", "op": "Const", "attr": {"value": {"tensor": {"dtype": "DT_INT32", "tensorShape": {"dim": [{"size": "4"}]}}}, "dtype": {"type": "DT_INT32"}}}, {"name": "StatefulPartitionedCall/tf_esm_model/esm/encoder/layer_._5/attention/self/rotary_embeddings/strided_slice_1/stack_1", "op": "Const", "attr": {"dtype": {"type": "DT_INT32"}, "value": {"tensor": {"dtype": "DT_INT32", "tensorShape": {"dim": [{"size": "4"}]}}}}}, {"name": "StatefulPartitionedCall/tf_esm_model/esm/encoder/layer_._5/attention/self/rotary_embeddings/strided_slice_1/stack_2", "op": "Const", "attr": {"dtype": {"type": "DT_INT32"}, "value": {"tensor": {"dtype": "DT_INT32", "tensorShape": {"dim": [{"size": "4"}]}}}}}, {"name": "StatefulPartitionedCall/tf_esm_model/esm/encoder/layer_._5/attention/self/rotary_embeddings/strided_slice_9/stack", "op": "Const", "attr": {"dtype": {"type": "DT_INT32"}, "value": {"tensor": {"dtype": "DT_INT32", "tensorShape": {"dim": [{"size": "4"}]}}}}}, {"name": "StatefulPartitionedCall/tf_esm_model/esm/encoder/layer_._5/attention/self/rotary_embeddings/strided_slice_9/stack_1/0", "op": "Const", "attr": {"dtype": {"type": "DT_INT32"}, "value": {"tensor": {"dtype": "DT_INT32", "tensorShape": {}}}}}, {"name": "StatefulPartitionedCall/tf_esm_model/esm/encoder/layer_._5/attention/self/rotary_embeddings/strided_slice_9/stack_1/1", "op": "Const", "attr": {"value": {"tensor": {"dtype": "DT_INT32", "tensorShape": {}}}, "dtype": {"type": "DT_INT32"}}}, {"name": "StatefulPartitionedCall/tf_esm_model/esm/encoder/layer_._5/attention/self/strided_slice/stack", "op": "Const", "attr": {"dtype": {"type": "DT_INT32"}, "value": {"tensor": {"dtype": "DT_INT32", "tensorShape": {"dim": [{"size": "1"}]}}}}}, {"name": "StatefulPartitionedCall/tf_esm_model/esm/encoder/layer_._5/attention/self/strided_slice/stack_1", "op": "Const", "attr": {"value": {"tensor": {"dtype": "DT_INT32", "tensorShape": {"dim": [{"size": "1"}]}}}, "dtype": {"type": "DT_INT32"}}}, {"name": "StatefulPartitionedCall/tf_esm_model/esm/encoder/layer_._5/attention/self/strided_slice/stack_2", "op": "Const", "attr": {"dtype": {"type": "DT_INT32"}, "value": {"tensor": {"dtype": "DT_INT32", "tensorShape": {"dim": [{"size": "1"}]}}}}}, {"name": "StatefulPartitionedCall/tf_esm_model/esm/encoder/layer_._5/attention/self/key/Tensordot/Const", "op": "Const", "attr": {"value": {"tensor": {"dtype": "DT_INT32", "tensorShape": {"dim": [{"size": "1"}]}}}, "dtype": {"type": "DT_INT32"}}}, {"name": "StatefulPartitionedCall/tf_esm_model/esm/encoder/layer_._5/attention/self/key/Tensordot/axes", "op": "Const", "attr": {"dtype": {"type": "DT_INT32"}, "value": {"tensor": {"dtype": "DT_INT32", "tensorShape": {"dim": [{"size": "1"}]}}}}}, {"name": "StatefulPartitionedCall/tf_esm_model/esm/encoder/layer_._5/attention/self/key/Tensordot/GatherV2_1/axis", "op": "Const", "attr": {"dtype": {"type": "DT_INT32"}, "value": {"tensor": {"dtype": "DT_INT32", "tensorShape": {}}}}}, {"name": "StatefulPartitionedCall/tf_esm_model/esm/encoder/layer_._5/attention/self/key/Tensordot/Const_1", "op": "Const", "attr": {"value": {"tensor": {"dtype": "DT_INT32", "tensorShape": {"dim": [{"size": "1"}]}}}, "dtype": {"type": "DT_INT32"}}}, {"name": "StatefulPartitionedCall/tf_esm_model/esm/encoder/layer_._5/attention/self/key/Tensordot/ReadVariableOp", "op": "Const", "attr": {"value": {"tensor": {"dtype": "DT_FLOAT", "tensorShape": {"dim": [{"size": "320"}, {"size": "320"}]}}}, "dtype": {"type": "DT_FLOAT"}}}, {"name": "StatefulPartitionedCall/tf_esm_model/esm/encoder/layer_._5/attention/self/key/Tensordot/free", "op": "Const", "attr": {"value": {"tensor": {"dtype": "DT_INT32", "tensorShape": {"dim": [{"size": "2"}]}}}, "dtype": {"type": "DT_INT32"}}}, {"name": "StatefulPartitionedCall/tf_esm_model/esm/encoder/layer_._5/attention/self/key/Tensordot/GatherV2/axis", "op": "Const", "attr": {"dtype": {"type": "DT_INT32"}, "value": {"tensor": {"dtype": "DT_INT32", "tensorShape": {}}}}}, {"name": "StatefulPartitionedCall/tf_esm_model/esm/encoder/layer_._5/attention/self/key/Tensordot/Const_2", "op": "Const", "attr": {"dtype": {"type": "DT_INT32"}, "value": {"tensor": {"dtype": "DT_INT32", "tensorShape": {"dim": [{"size": "1"}]}}}}}, {"name": "StatefulPartitionedCall/tf_esm_model/esm/encoder/layer_._5/attention/self/key/Tensordot/concat_1/axis", "op": "Const", "attr": {"dtype": {"type": "DT_INT32"}, "value": {"tensor": {"dtype": "DT_INT32", "tensorShape": {}}}}}, {"name": "StatefulPartitionedCall/tf_esm_model/esm/encoder/layer_._5/attention/self/key/BiasAdd/ReadVariableOp", "op": "Const", "attr": {"dtype": {"type": "DT_FLOAT"}, "value": {"tensor": {"dtype": "DT_FLOAT", "tensorShape": {"dim": [{"size": "320"}]}}}}}, {"name": "StatefulPartitionedCall/tf_esm_model/esm/encoder/layer_._5/attention/self/strided_slice_1/stack", "op": "Const", "attr": {"value": {"tensor": {"dtype": "DT_INT32", "tensorShape": {"dim": [{"size": "1"}]}}}, "dtype": {"type": "DT_INT32"}}}, {"name": "StatefulPartitionedCall/tf_esm_model/esm/encoder/layer_._5/attention/self/strided_slice_1/stack_1", "op": "Const", "attr": {"dtype": {"type": "DT_INT32"}, "value": {"tensor": {"dtype": "DT_INT32", "tensorShape": {"dim": [{"size": "1"}]}}}}}, {"name": "StatefulPartitionedCall/tf_esm_model/esm/encoder/layer_._5/attention/self/strided_slice_1/stack_2", "op": "Const", "attr": {"dtype": {"type": "DT_INT32"}, "value": {"tensor": {"dtype": "DT_INT32", "tensorShape": {"dim": [{"size": "1"}]}}}}}, {"name": "StatefulPartitionedCall/tf_esm_model/esm/encoder/layer_._5/attention/self/Reshape/shape/2", "op": "Const", "attr": {"value": {"tensor": {"dtype": "DT_INT32", "tensorShape": {}}}, "dtype": {"type": "DT_INT32"}}}, {"name": "StatefulPartitionedCall/tf_esm_model/esm/encoder/layer_._5/attention/self/Reshape/shape/3", "op": "Const", "attr": {"value": {"tensor": {"dtype": "DT_INT32", "tensorShape": {}}}, "dtype": {"type": "DT_INT32"}}}, {"name": "StatefulPartitionedCall/tf_esm_model/esm/encoder/layer_._5/attention/self/transpose/perm", "op": "Const", "attr": {"value": {"tensor": {"dtype": "DT_INT32", "tensorShape": {"dim": [{"size": "4"}]}}}, "dtype": {"type": "DT_INT32"}}}, {"name": "StatefulPartitionedCall/tf_esm_model/esm/encoder/layer_._5/attention/self/rotary_embeddings/strided_slice_8/stack", "op": "Const", "attr": {"value": {"tensor": {"dtype": "DT_INT32", "tensorShape": {"dim": [{"size": "1"}]}}}, "dtype": {"type": "DT_INT32"}}}, {"name": "StatefulPartitionedCall/tf_esm_model/esm/encoder/layer_._5/attention/self/rotary_embeddings/strided_slice_8/stack_1", "op": "Const", "attr": {"dtype": {"type": "DT_INT32"}, "value": {"tensor": {"dtype": "DT_INT32", "tensorShape": {"dim": [{"size": "1"}]}}}}}, {"name": "StatefulPartitionedCall/tf_esm_model/esm/encoder/layer_._5/attention/self/rotary_embeddings/strided_slice_8/stack_2", "op": "Const", "attr": {"value": {"tensor": {"dtype": "DT_INT32", "tensorShape": {"dim": [{"size": "1"}]}}}, "dtype": {"type": "DT_INT32"}}}, {"name": "StatefulPartitionedCall/tf_esm_model/esm/encoder/layer_._5/attention/self/rotary_embeddings/strided_slice_9/stack_1/3", "op": "Const", "attr": {"dtype": {"type": "DT_INT32"}, "value": {"tensor": {"dtype": "DT_INT32", "tensorShape": {}}}}}, {"name": "StatefulPartitionedCall/tf_esm_model/esm/encoder/layer_._5/attention/self/rotary_embeddings/strided_slice_9/stack_2", "op": "Const", "attr": {"value": {"tensor": {"dtype": "DT_INT32", "tensorShape": {"dim": [{"size": "4"}]}}}, "dtype": {"type": "DT_INT32"}}}, {"name": "StatefulPartitionedCall/tf_esm_model/esm/encoder/layer_._5/attention/self/add_1/y", "op": "Const", "attr": {"dtype": {"type": "DT_FLOAT"}, "value": {"tensor": {"dtype": "DT_FLOAT", "tensorShape": {}}}}}, {"name": "StatefulPartitionedCall/tf_esm_model/esm/encoder/layer_._5/attention/self/strided_slice_2/stack", "op": "Const", "attr": {"value": {"tensor": {"dtype": "DT_INT32", "tensorShape": {"dim": [{"size": "1"}]}}}, "dtype": {"type": "DT_INT32"}}}, {"name": "StatefulPartitionedCall/tf_esm_model/esm/encoder/layer_._5/attention/self/strided_slice_2/stack_1", "op": "Const", "attr": {"value": {"tensor": {"dtype": "DT_INT32", "tensorShape": {"dim": [{"size": "1"}]}}}, "dtype": {"type": "DT_INT32"}}}, {"name": "StatefulPartitionedCall/tf_esm_model/esm/encoder/layer_._5/attention/self/strided_slice_2/stack_2", "op": "Const", "attr": {"value": {"tensor": {"dtype": "DT_INT32", "tensorShape": {"dim": [{"size": "1"}]}}}, "dtype": {"type": "DT_INT32"}}}, {"name": "StatefulPartitionedCall/tf_esm_model/esm/encoder/layer_._5/attention/self/value/Tensordot/Const", "op": "Const", "attr": {"dtype": {"type": "DT_INT32"}, "value": {"tensor": {"dtype": "DT_INT32", "tensorShape": {"dim": [{"size": "1"}]}}}}}, {"name": "StatefulPartitionedCall/tf_esm_model/esm/encoder/layer_._5/attention/self/value/Tensordot/axes", "op": "Const", "attr": {"dtype": {"type": "DT_INT32"}, "value": {"tensor": {"dtype": "DT_INT32", "tensorShape": {"dim": [{"size": "1"}]}}}}}, {"name": "StatefulPartitionedCall/tf_esm_model/esm/encoder/layer_._5/attention/self/value/Tensordot/GatherV2_1/axis", "op": "Const", "attr": {"value": {"tensor": {"dtype": "DT_INT32", "tensorShape": {}}}, "dtype": {"type": "DT_INT32"}}}, {"name": "StatefulPartitionedCall/tf_esm_model/esm/encoder/layer_._5/attention/self/value/Tensordot/Const_1", "op": "Const", "attr": {"value": {"tensor": {"dtype": "DT_INT32", "tensorShape": {"dim": [{"size": "1"}]}}}, "dtype": {"type": "DT_INT32"}}}, {"name": "StatefulPartitionedCall/tf_esm_model/esm/encoder/layer_._5/attention/self/value/Tensordot/ReadVariableOp", "op": "Const", "attr": {"value": {"tensor": {"dtype": "DT_FLOAT", "tensorShape": {"dim": [{"size": "320"}, {"size": "320"}]}}}, "dtype": {"type": "DT_FLOAT"}}}, {"name": "StatefulPartitionedCall/tf_esm_model/esm/encoder/layer_._5/attention/LayerNorm/batchnorm/ReadVariableOp", "op": "Const", "attr": {"dtype": {"type": "DT_FLOAT"}, "value": {"tensor": {"dtype": "DT_FLOAT", "tensorShape": {"dim": [{"size": "320"}]}}}}}, {"name": "StatefulPartitionedCall/tf_esm_model/esm/encoder/layer_._5/attention/LayerNorm/moments/mean/reduction_indices", "op": "Const", "attr": {"value": {"tensor": {"dtype": "DT_INT32", "tensorShape": {"dim": [{"size": "1"}]}}}, "dtype": {"type": "DT_INT32"}}}, {"name": "StatefulPartitionedCall/tf_esm_model/esm/encoder/layer_._5/attention/LayerNorm/moments/variance/reduction_indices", "op": "Const", "attr": {"value": {"tensor": {"dtype": "DT_INT32", "tensorShape": {"dim": [{"size": "1"}]}}}, "dtype": {"type": "DT_INT32"}}}, {"name": "StatefulPartitionedCall/tf_esm_model/esm/encoder/layer_._5/attention/LayerNorm/batchnorm/add/y", "op": "Const", "attr": {"value": {"tensor": {"dtype": "DT_FLOAT", "tensorShape": {}}}, "dtype": {"type": "DT_FLOAT"}}}, {"name": "StatefulPartitionedCall/tf_esm_model/esm/encoder/layer_._5/attention/LayerNorm/batchnorm/mul/ReadVariableOp", "op": "Const", "attr": {"dtype": {"type": "DT_FLOAT"}, "value": {"tensor": {"dtype": "DT_FLOAT", "tensorShape": {"dim": [{"size": "320"}]}}}}}, {"name": "StatefulPartitionedCall/tf_esm_model/esm/encoder/layer_._5/attention/self/value/Tensordot/free", "op": "Const", "attr": {"value": {"tensor": {"dtype": "DT_INT32", "tensorShape": {"dim": [{"size": "2"}]}}}, "dtype": {"type": "DT_INT32"}}}, {"name": "StatefulPartitionedCall/tf_esm_model/esm/encoder/layer_._5/attention/self/value/Tensordot/GatherV2/axis", "op": "Const", "attr": {"dtype": {"type": "DT_INT32"}, "value": {"tensor": {"dtype": "DT_INT32", "tensorShape": {}}}}}, {"name": "StatefulPartitionedCall/tf_esm_model/esm/encoder/layer_._5/attention/self/value/Tensordot/Const_2", "op": "Const", "attr": {"dtype": {"type": "DT_INT32"}, "value": {"tensor": {"dtype": "DT_INT32", "tensorShape": {"dim": [{"size": "1"}]}}}}}, {"name": "StatefulPartitionedCall/tf_esm_model/esm/encoder/layer_._5/attention/self/value/Tensordot/concat_1/axis", "op": "Const", "attr": {"dtype": {"type": "DT_INT32"}, "value": {"tensor": {"dtype": "DT_INT32", "tensorShape": {}}}}}, {"name": "StatefulPartitionedCall/tf_esm_model/esm/encoder/layer_._5/attention/self/value/BiasAdd/ReadVariableOp", "op": "Const", "attr": {"dtype": {"type": "DT_FLOAT"}, "value": {"tensor": {"dtype": "DT_FLOAT", "tensorShape": {"dim": [{"size": "320"}]}}}}}, {"name": "StatefulPartitionedCall/tf_esm_model/esm/encoder/layer_._5/attention/self/strided_slice_3/stack", "op": "Const", "attr": {"dtype": {"type": "DT_INT32"}, "value": {"tensor": {"dtype": "DT_INT32", "tensorShape": {"dim": [{"size": "1"}]}}}}}, {"name": "StatefulPartitionedCall/tf_esm_model/esm/encoder/layer_._5/attention/self/strided_slice_3/stack_1", "op": "Const", "attr": {"dtype": {"type": "DT_INT32"}, "value": {"tensor": {"dtype": "DT_INT32", "tensorShape": {"dim": [{"size": "1"}]}}}}}, {"name": "StatefulPartitionedCall/tf_esm_model/esm/encoder/layer_._5/attention/self/strided_slice_3/stack_2", "op": "Const", "attr": {"value": {"tensor": {"dtype": "DT_INT32", "tensorShape": {"dim": [{"size": "1"}]}}}, "dtype": {"type": "DT_INT32"}}}, {"name": "StatefulPartitionedCall/tf_esm_model/esm/encoder/layer_._5/attention/self/Reshape_1/shape/2", "op": "Const", "attr": {"value": {"tensor": {"dtype": "DT_INT32", "tensorShape": {}}}, "dtype": {"type": "DT_INT32"}}}, {"name": "StatefulPartitionedCall/tf_esm_model/esm/encoder/layer_._5/attention/self/Reshape_1/shape/3", "op": "Const", "attr": {"value": {"tensor": {"dtype": "DT_INT32", "tensorShape": {}}}, "dtype": {"type": "DT_INT32"}}}, {"name": "StatefulPartitionedCall/tf_esm_model/esm/encoder/layer_._5/attention/self/transpose_1/perm", "op": "Const", "attr": {"value": {"tensor": {"dtype": "DT_INT32", "tensorShape": {"dim": [{"size": "4"}]}}}, "dtype": {"type": "DT_INT32"}}}, {"name": "StatefulPartitionedCall/tf_esm_model/esm/encoder/layer_._5/attention/self/transpose_3/perm", "op": "Const", "attr": {"value": {"tensor": {"dtype": "DT_INT32", "tensorShape": {"dim": [{"size": "4"}]}}}, "dtype": {"type": "DT_INT32"}}}, {"name": "StatefulPartitionedCall/tf_esm_model/esm/encoder/layer_._5/attention/self/strided_slice_7/stack", "op": "Const", "attr": {"dtype": {"type": "DT_INT32"}, "value": {"tensor": {"dtype": "DT_INT32", "tensorShape": {"dim": [{"size": "1"}]}}}}}, {"name": "StatefulPartitionedCall/tf_esm_model/esm/encoder/layer_._5/attention/self/strided_slice_7/stack_1", "op": "Const", "attr": {"dtype": {"type": "DT_INT32"}, "value": {"tensor": {"dtype": "DT_INT32", "tensorShape": {"dim": [{"size": "1"}]}}}}}, {"name": "StatefulPartitionedCall/tf_esm_model/esm/encoder/layer_._5/attention/self/strided_slice_7/stack_2", "op": "Const", "attr": {"value": {"tensor": {"dtype": "DT_INT32", "tensorShape": {"dim": [{"size": "1"}]}}}, "dtype": {"type": "DT_INT32"}}}, {"name": "StatefulPartitionedCall/tf_esm_model/esm/encoder/layer_._5/attention/self/Reshape_3/shape/2", "op": "Const", "attr": {"value": {"tensor": {"dtype": "DT_INT32", "tensorShape": {}}}, "dtype": {"type": "DT_INT32"}}}, {"name": "StatefulPartitionedCall/tf_esm_model/esm/encoder/layer_._5/attention/output/dense/Tensordot/free", "op": "Const", "attr": {"dtype": {"type": "DT_INT32"}, "value": {"tensor": {"dtype": "DT_INT32", "tensorShape": {"dim": [{"size": "2"}]}}}}}, {"name": "StatefulPartitionedCall/tf_esm_model/esm/encoder/layer_._5/attention/output/dense/Tensordot/GatherV2/axis", "op": "Const", "attr": {"dtype": {"type": "DT_INT32"}, "value": {"tensor": {"dtype": "DT_INT32", "tensorShape": {}}}}}, {"name": "StatefulPartitionedCall/tf_esm_model/esm/encoder/layer_._5/attention/output/dense/Tensordot/Const_2", "op": "Const", "attr": {"value": {"tensor": {"dtype": "DT_INT32", "tensorShape": {"dim": [{"size": "1"}]}}}, "dtype": {"type": "DT_INT32"}}}, {"name": "StatefulPartitionedCall/tf_esm_model/esm/encoder/layer_._5/attention/output/dense/Tensordot/concat_1/axis", "op": "Const", "attr": {"dtype": {"type": "DT_INT32"}, "value": {"tensor": {"dtype": "DT_INT32", "tensorShape": {}}}}}, {"name": "StatefulPartitionedCall/tf_esm_model/esm/encoder/layer_._5/attention/output/dense/BiasAdd/ReadVariableOp", "op": "Const", "attr": {"dtype": {"type": "DT_FLOAT"}, "value": {"tensor": {"dtype": "DT_FLOAT", "tensorShape": {"dim": [{"size": "320"}]}}}}}, {"name": "StatefulPartitionedCall/tf_esm_model/esm/encoder/layer_._4/output/dense/Tensordot/Const", "op": "Const", "attr": {"dtype": {"type": "DT_INT32"}, "value": {"tensor": {"dtype": "DT_INT32", "tensorShape": {"dim": [{"size": "1"}]}}}}}, {"name": "StatefulPartitionedCall/tf_esm_model/esm/encoder/layer_._4/output/dense/Tensordot/axes", "op": "Const", "attr": {"dtype": {"type": "DT_INT32"}, "value": {"tensor": {"dtype": "DT_INT32", "tensorShape": {"dim": [{"size": "1"}]}}}}}, {"name": "StatefulPartitionedCall/tf_esm_model/esm/encoder/layer_._4/output/dense/Tensordot/GatherV2_1/axis", "op": "Const", "attr": {"value": {"tensor": {"dtype": "DT_INT32", "tensorShape": {}}}, "dtype": {"type": "DT_INT32"}}}, {"name": "StatefulPartitionedCall/tf_esm_model/esm/encoder/layer_._4/output/dense/Tensordot/Const_1", "op": "Const", "attr": {"value": {"tensor": {"dtype": "DT_INT32", "tensorShape": {"dim": [{"size": "1"}]}}}, "dtype": {"type": "DT_INT32"}}}, {"name": "StatefulPartitionedCall/tf_esm_model/esm/encoder/layer_._4/output/dense/Tensordot/ReadVariableOp", "op": "Const", "attr": {"value": {"tensor": {"dtype": "DT_FLOAT", "tensorShape": {"dim": [{"size": "1280"}, {"size": "320"}]}}}, "dtype": {"type": "DT_FLOAT"}}}, {"name": "StatefulPartitionedCall/tf_esm_model/esm/encoder/layer_._4/intermediate/Gelu/mul/x", "op": "Const", "attr": {"value": {"tensor": {"dtype": "DT_FLOAT", "tensorShape": {}}}, "dtype": {"type": "DT_FLOAT"}}}, {"name": "StatefulPartitionedCall/tf_esm_model/esm/encoder/layer_._4/intermediate/Gelu/add/x", "op": "Const", "attr": {"value": {"tensor": {"dtype": "DT_FLOAT", "tensorShape": {}}}, "dtype": {"type": "DT_FLOAT"}}}, {"name": "StatefulPartitionedCall/tf_esm_model/esm/encoder/layer_._4/intermediate/dense/Tensordot/Const", "op": "Const", "attr": {"dtype": {"type": "DT_INT32"}, "value": {"tensor": {"dtype": "DT_INT32", "tensorShape": {"dim": [{"size": "1"}]}}}}}, {"name": "StatefulPartitionedCall/tf_esm_model/esm/encoder/layer_._4/intermediate/dense/Tensordot/axes", "op": "Const", "attr": {"value": {"tensor": {"dtype": "DT_INT32", "tensorShape": {"dim": [{"size": "1"}]}}}, "dtype": {"type": "DT_INT32"}}}, {"name": "StatefulPartitionedCall/tf_esm_model/esm/encoder/layer_._4/intermediate/dense/Tensordot/GatherV2_1/axis", "op": "Const", "attr": {"value": {"tensor": {"dtype": "DT_INT32", "tensorShape": {}}}, "dtype": {"type": "DT_INT32"}}}, {"name": "StatefulPartitionedCall/tf_esm_model/esm/encoder/layer_._4/intermediate/dense/Tensordot/Const_1", "op": "Const", "attr": {"dtype": {"type": "DT_INT32"}, "value": {"tensor": {"dtype": "DT_INT32", "tensorShape": {"dim": [{"size": "1"}]}}}}}, {"name": "StatefulPartitionedCall/tf_esm_model/esm/encoder/layer_._4/intermediate/dense/Tensordot/ReadVariableOp", "op": "Const", "attr": {"dtype": {"type": "DT_FLOAT"}, "value": {"tensor": {"dtype": "DT_FLOAT", "tensorShape": {"dim": [{"size": "320"}, {"size": "1280"}]}}}}}, {"name": "StatefulPartitionedCall/tf_esm_model/esm/encoder/layer_._4/LayerNorm/batchnorm/ReadVariableOp", "op": "Const", "attr": {"value": {"tensor": {"dtype": "DT_FLOAT", "tensorShape": {"dim": [{"size": "320"}]}}}, "dtype": {"type": "DT_FLOAT"}}}, {"name": "StatefulPartitionedCall/tf_esm_model/esm/encoder/layer_._4/LayerNorm/moments/mean/reduction_indices", "op": "Const", "attr": {"value": {"tensor": {"dtype": "DT_INT32", "tensorShape": {"dim": [{"size": "1"}]}}}, "dtype": {"type": "DT_INT32"}}}, {"name": "StatefulPartitionedCall/tf_esm_model/esm/encoder/layer_._4/LayerNorm/moments/variance/reduction_indices", "op": "Const", "attr": {"dtype": {"type": "DT_INT32"}, "value": {"tensor": {"dtype": "DT_INT32", "tensorShape": {"dim": [{"size": "1"}]}}}}}, {"name": "StatefulPartitionedCall/tf_esm_model/esm/encoder/layer_._4/LayerNorm/batchnorm/add/y", "op": "Const", "attr": {"dtype": {"type": "DT_FLOAT"}, "value": {"tensor": {"dtype": "DT_FLOAT", "tensorShape": {}}}}}, {"name": "StatefulPartitionedCall/tf_esm_model/esm/encoder/layer_._4/LayerNorm/batchnorm/mul/ReadVariableOp", "op": "Const", "attr": {"value": {"tensor": {"dtype": "DT_FLOAT", "tensorShape": {"dim": [{"size": "320"}]}}}, "dtype": {"type": "DT_FLOAT"}}}, {"name": "StatefulPartitionedCall/tf_esm_model/esm/encoder/layer_._4/intermediate/dense/Tensordot/free", "op": "Const", "attr": {"value": {"tensor": {"dtype": "DT_INT32", "tensorShape": {"dim": [{"size": "2"}]}}}, "dtype": {"type": "DT_INT32"}}}, {"name": "StatefulPartitionedCall/tf_esm_model/esm/encoder/layer_._4/intermediate/dense/Tensordot/GatherV2/axis", "op": "Const", "attr": {"value": {"tensor": {"dtype": "DT_INT32", "tensorShape": {}}}, "dtype": {"type": "DT_INT32"}}}, {"name": "StatefulPartitionedCall/tf_esm_model/esm/encoder/layer_._4/intermediate/dense/Tensordot/Const_2", "op": "Const", "attr": {"dtype": {"type": "DT_INT32"}, "value": {"tensor": {"dtype": "DT_INT32", "tensorShape": {"dim": [{"size": "1"}]}}}}}, {"name": "StatefulPartitionedCall/tf_esm_model/esm/encoder/layer_._4/intermediate/dense/Tensordot/concat_1/axis", "op": "Const", "attr": {"value": {"tensor": {"dtype": "DT_INT32", "tensorShape": {}}}, "dtype": {"type": "DT_INT32"}}}, {"name": "StatefulPartitionedCall/tf_esm_model/esm/encoder/layer_._4/intermediate/dense/BiasAdd/ReadVariableOp", "op": "Const", "attr": {"dtype": {"type": "DT_FLOAT"}, "value": {"tensor": {"dtype": "DT_FLOAT", "tensorShape": {"dim": [{"size": "1280"}]}}}}}, {"name": "ConstantFolding/StatefulPartitionedCall/tf_esm_model/esm/encoder/layer_._4/intermediate/Gelu/truediv_recip", "op": "Const", "attr": {"dtype": {"type": "DT_FLOAT"}, "value": {"tensor": {"dtype": "DT_FLOAT", "tensorShape": {}}}}}, {"name": "StatefulPartitionedCall/tf_esm_model/esm/encoder/layer_._4/output/dense/Tensordot/free", "op": "Const", "attr": {"dtype": {"type": "DT_INT32"}, "value": {"tensor": {"dtype": "DT_INT32", "tensorShape": {"dim": [{"size": "2"}]}}}}}, {"name": "StatefulPartitionedCall/tf_esm_model/esm/encoder/layer_._4/output/dense/Tensordot/GatherV2/axis", "op": "Const", "attr": {"value": {"tensor": {"dtype": "DT_INT32", "tensorShape": {}}}, "dtype": {"type": "DT_INT32"}}}, {"name": "StatefulPartitionedCall/tf_esm_model/esm/encoder/layer_._4/output/dense/Tensordot/Const_2", "op": "Const", "attr": {"dtype": {"type": "DT_INT32"}, "value": {"tensor": {"dtype": "DT_INT32", "tensorShape": {"dim": [{"size": "1"}]}}}}}, {"name": "StatefulPartitionedCall/tf_esm_model/esm/encoder/layer_._4/output/dense/Tensordot/concat_1/axis", "op": "Const", "attr": {"value": {"tensor": {"dtype": "DT_INT32", "tensorShape": {}}}, "dtype": {"type": "DT_INT32"}}}, {"name": "StatefulPartitionedCall/tf_esm_model/esm/encoder/layer_._4/output/dense/BiasAdd/ReadVariableOp", "op": "Const", "attr": {"value": {"tensor": {"dtype": "DT_FLOAT", "tensorShape": {"dim": [{"size": "320"}]}}}, "dtype": {"type": "DT_FLOAT"}}}, {"name": "StatefulPartitionedCall/tf_esm_model/esm/encoder/layer_._4/attention/output/dense/Tensordot/Const", "op": "Const", "attr": {"dtype": {"type": "DT_INT32"}, "value": {"tensor": {"dtype": "DT_INT32", "tensorShape": {"dim": [{"size": "1"}]}}}}}, {"name": "StatefulPartitionedCall/tf_esm_model/esm/encoder/layer_._4/attention/output/dense/Tensordot/axes", "op": "Const", "attr": {"value": {"tensor": {"dtype": "DT_INT32", "tensorShape": {"dim": [{"size": "1"}]}}}, "dtype": {"type": "DT_INT32"}}}, {"name": "StatefulPartitionedCall/tf_esm_model/esm/encoder/layer_._4/attention/output/dense/Tensordot/GatherV2_1/axis", "op": "Const", "attr": {"value": {"tensor": {"dtype": "DT_INT32", "tensorShape": {}}}, "dtype": {"type": "DT_INT32"}}}, {"name": "StatefulPartitionedCall/tf_esm_model/esm/encoder/layer_._4/attention/output/dense/Tensordot/Const_1", "op": "Const", "attr": {"dtype": {"type": "DT_INT32"}, "value": {"tensor": {"dtype": "DT_INT32", "tensorShape": {"dim": [{"size": "1"}]}}}}}, {"name": "StatefulPartitionedCall/tf_esm_model/esm/encoder/layer_._4/attention/output/dense/Tensordot/ReadVariableOp", "op": "Const", "attr": {"value": {"tensor": {"dtype": "DT_FLOAT", "tensorShape": {"dim": [{"size": "320"}, {"size": "320"}]}}}, "dtype": {"type": "DT_FLOAT"}}}, {"name": "StatefulPartitionedCall/tf_esm_model/esm/encoder/layer_._4/attention/self/strided_slice_6/stack", "op": "Const", "attr": {"dtype": {"type": "DT_INT32"}, "value": {"tensor": {"dtype": "DT_INT32", "tensorShape": {"dim": [{"size": "1"}]}}}}}, {"name": "StatefulPartitionedCall/tf_esm_model/esm/encoder/layer_._4/attention/self/strided_slice_6/stack_1", "op": "Const", "attr": {"dtype": {"type": "DT_INT32"}, "value": {"tensor": {"dtype": "DT_INT32", "tensorShape": {"dim": [{"size": "1"}]}}}}}, {"name": "StatefulPartitionedCall/tf_esm_model/esm/encoder/layer_._4/attention/self/strided_slice_6/stack_2", "op": "Const", "attr": {"value": {"tensor": {"dtype": "DT_INT32", "tensorShape": {"dim": [{"size": "1"}]}}}, "dtype": {"type": "DT_INT32"}}}, {"name": "StatefulPartitionedCall/tf_esm_model/esm/encoder/layer_._4/attention/self/rotary_embeddings/strided_slice_3/stack", "op": "Const", "attr": {"value": {"tensor": {"dtype": "DT_INT32", "tensorShape": {"dim": [{"size": "4"}]}}}, "dtype": {"type": "DT_INT32"}}}, {"name": "StatefulPartitionedCall/tf_esm_model/esm/encoder/layer_._4/attention/self/rotary_embeddings/strided_slice_3/stack_1/0", "op": "Const", "attr": {"dtype": {"type": "DT_INT32"}, "value": {"tensor": {"dtype": "DT_INT32", "tensorShape": {}}}}}, {"name": "StatefulPartitionedCall/tf_esm_model/esm/encoder/layer_._4/attention/self/rotary_embeddings/strided_slice_3/stack_1/1", "op": "Const", "attr": {"value": {"tensor": {"dtype": "DT_INT32", "tensorShape": {}}}, "dtype": {"type": "DT_INT32"}}}, {"name": "StatefulPartitionedCall/tf_esm_model/esm/encoder/layer_._4/attention/self/rotary_embeddings/strided_slice_2/stack", "op": "Const", "attr": {"dtype": {"type": "DT_INT32"}, "value": {"tensor": {"dtype": "DT_INT32", "tensorShape": {"dim": [{"size": "1"}]}}}}}, {"name": "StatefulPartitionedCall/tf_esm_model/esm/encoder/layer_._4/attention/self/rotary_embeddings/strided_slice_2/stack_1", "op": "Const", "attr": {"dtype": {"type": "DT_INT32"}, "value": {"tensor": {"dtype": "DT_INT32", "tensorShape": {"dim": [{"size": "1"}]}}}}}, {"name": "StatefulPartitionedCall/tf_esm_model/esm/encoder/layer_._4/attention/self/rotary_embeddings/strided_slice_2/stack_2", "op": "Const", "attr": {"value": {"tensor": {"dtype": "DT_INT32", "tensorShape": {"dim": [{"size": "1"}]}}}, "dtype": {"type": "DT_INT32"}}}, {"name": "StatefulPartitionedCall/tf_esm_model/esm/encoder/layer_._4/attention/self/rotary_embeddings/strided_slice_3/stack_1/3", "op": "Const", "attr": {"dtype": {"type": "DT_INT32"}, "value": {"tensor": {"dtype": "DT_INT32", "tensorShape": {}}}}}, {"name": "StatefulPartitionedCall/tf_esm_model/esm/encoder/layer_._4/attention/self/rotary_embeddings/strided_slice_3/stack_2", "op": "Const", "attr": {"value": {"tensor": {"dtype": "DT_INT32", "tensorShape": {"dim": [{"size": "4"}]}}}, "dtype": {"type": "DT_INT32"}}}, {"name": "StatefulPartitionedCall/tf_esm_model/esm/encoder/layer_._4/attention/self/rotary_embeddings/split/split_dim", "op": "Const", "attr": {"value": {"tensor": {"dtype": "DT_INT32", "tensorShape": {}}}, "dtype": {"type": "DT_INT32"}}}, {"name": "StatefulPartitionedCall/tf_esm_model/esm/encoder/layer_._4/attention/self/rotary_embeddings/concat_1/axis", "op": "Const", "attr": {"value": {"tensor": {"dtype": "DT_INT32", "tensorShape": {}}}, "dtype": {"type": "DT_INT32"}}}, {"name": "StatefulPartitionedCall/tf_esm_model/esm/encoder/layer_._4/attention/self/rotary_embeddings/strided_slice_5/stack", "op": "Const", "attr": {"dtype": {"type": "DT_INT32"}, "value": {"tensor": {"dtype": "DT_INT32", "tensorShape": {"dim": [{"size": "4"}]}}}}}, {"name": "StatefulPartitionedCall/tf_esm_model/esm/encoder/layer_._4/attention/self/rotary_embeddings/strided_slice_5/stack_1/0", "op": "Const", "attr": {"dtype": {"type": "DT_INT32"}, "value": {"tensor": {"dtype": "DT_INT32", "tensorShape": {}}}}}, {"name": "StatefulPartitionedCall/tf_esm_model/esm/encoder/layer_._4/attention/self/rotary_embeddings/strided_slice_5/stack_1/1", "op": "Const", "attr": {"dtype": {"type": "DT_INT32"}, "value": {"tensor": {"dtype": "DT_INT32", "tensorShape": {}}}}}, {"name": "StatefulPartitionedCall/tf_esm_model/esm/encoder/layer_._4/attention/self/strided_slice_4/stack", "op": "Const", "attr": {"dtype": {"type": "DT_INT32"}, "value": {"tensor": {"dtype": "DT_INT32", "tensorShape": {"dim": [{"size": "1"}]}}}}}, {"name": "StatefulPartitionedCall/tf_esm_model/esm/encoder/layer_._4/attention/self/strided_slice_4/stack_1", "op": "Const", "attr": {"value": {"tensor": {"dtype": "DT_INT32", "tensorShape": {"dim": [{"size": "1"}]}}}, "dtype": {"type": "DT_INT32"}}}, {"name": "StatefulPartitionedCall/tf_esm_model/esm/encoder/layer_._4/attention/self/strided_slice_4/stack_2", "op": "Const", "attr": {"value": {"tensor": {"dtype": "DT_INT32", "tensorShape": {"dim": [{"size": "1"}]}}}, "dtype": {"type": "DT_INT32"}}}, {"name": "StatefulPartitionedCall/tf_esm_model/esm/encoder/layer_._4/attention/self/query/Tensordot/Const", "op": "Const", "attr": {"value": {"tensor": {"dtype": "DT_INT32", "tensorShape": {"dim": [{"size": "1"}]}}}, "dtype": {"type": "DT_INT32"}}}, {"name": "StatefulPartitionedCall/tf_esm_model/esm/encoder/layer_._4/attention/self/query/Tensordot/axes", "op": "Const", "attr": {"dtype": {"type": "DT_INT32"}, "value": {"tensor": {"dtype": "DT_INT32", "tensorShape": {"dim": [{"size": "1"}]}}}}}, {"name": "StatefulPartitionedCall/tf_esm_model/esm/encoder/layer_._4/attention/self/query/Tensordot/GatherV2_1/axis", "op": "Const", "attr": {"value": {"tensor": {"dtype": "DT_INT32", "tensorShape": {}}}, "dtype": {"type": "DT_INT32"}}}, {"name": "StatefulPartitionedCall/tf_esm_model/esm/encoder/layer_._4/attention/self/query/Tensordot/Const_1", "op": "Const", "attr": {"dtype": {"type": "DT_INT32"}, "value": {"tensor": {"dtype": "DT_INT32", "tensorShape": {"dim": [{"size": "1"}]}}}}}, {"name": "StatefulPartitionedCall/tf_esm_model/esm/encoder/layer_._4/attention/self/query/Tensordot/ReadVariableOp", "op": "Const", "attr": {"value": {"tensor": {"dtype": "DT_FLOAT", "tensorShape": {"dim": [{"size": "320"}, {"size": "320"}]}}}, "dtype": {"type": "DT_FLOAT"}}}, {"name": "StatefulPartitionedCall/tf_esm_model/esm/encoder/layer_._4/attention/self/query/Tensordot/free", "op": "Const", "attr": {"dtype": {"type": "DT_INT32"}, "value": {"tensor": {"dtype": "DT_INT32", "tensorShape": {"dim": [{"size": "2"}]}}}}}, {"name": "StatefulPartitionedCall/tf_esm_model/esm/encoder/layer_._4/attention/self/query/Tensordot/GatherV2/axis", "op": "Const", "attr": {"dtype": {"type": "DT_INT32"}, "value": {"tensor": {"dtype": "DT_INT32", "tensorShape": {}}}}}, {"name": "StatefulPartitionedCall/tf_esm_model/esm/encoder/layer_._4/attention/self/query/Tensordot/Const_2", "op": "Const", "attr": {"value": {"tensor": {"dtype": "DT_INT32", "tensorShape": {"dim": [{"size": "1"}]}}}, "dtype": {"type": "DT_INT32"}}}, {"name": "StatefulPartitionedCall/tf_esm_model/esm/encoder/layer_._4/attention/self/query/Tensordot/concat_1/axis", "op": "Const", "attr": {"dtype": {"type": "DT_INT32"}, "value": {"tensor": {"dtype": "DT_INT32", "tensorShape": {}}}}}, {"name": "StatefulPartitionedCall/tf_esm_model/esm/encoder/layer_._4/attention/self/query/BiasAdd/ReadVariableOp", "op": "Const", "attr": {"dtype": {"type": "DT_FLOAT"}, "value": {"tensor": {"dtype": "DT_FLOAT", "tensorShape": {"dim": [{"size": "320"}]}}}}}, {"name": "StatefulPartitionedCall/tf_esm_model/esm/encoder/layer_._4/attention/self/strided_slice_5/stack", "op": "Const", "attr": {"value": {"tensor": {"dtype": "DT_INT32", "tensorShape": {"dim": [{"size": "1"}]}}}, "dtype": {"type": "DT_INT32"}}}, {"name": "StatefulPartitionedCall/tf_esm_model/esm/encoder/layer_._4/attention/self/strided_slice_5/stack_1", "op": "Const", "attr": {"dtype": {"type": "DT_INT32"}, "value": {"tensor": {"dtype": "DT_INT32", "tensorShape": {"dim": [{"size": "1"}]}}}}}, {"name": "StatefulPartitionedCall/tf_esm_model/esm/encoder/layer_._4/attention/self/strided_slice_5/stack_2", "op": "Const", "attr": {"value": {"tensor": {"dtype": "DT_INT32", "tensorShape": {"dim": [{"size": "1"}]}}}, "dtype": {"type": "DT_INT32"}}}, {"name": "StatefulPartitionedCall/tf_esm_model/esm/encoder/layer_._4/attention/self/Reshape_2/shape/2", "op": "Const", "attr": {"dtype": {"type": "DT_INT32"}, "value": {"tensor": {"dtype": "DT_INT32", "tensorShape": {}}}}}, {"name": "StatefulPartitionedCall/tf_esm_model/esm/encoder/layer_._4/attention/self/Reshape_2/shape/3", "op": "Const", "attr": {"dtype": {"type": "DT_INT32"}, "value": {"tensor": {"dtype": "DT_INT32", "tensorShape": {}}}}}, {"name": "StatefulPartitionedCall/tf_esm_model/esm/encoder/layer_._4/attention/self/transpose_2/perm", "op": "Const", "attr": {"dtype": {"type": "DT_INT32"}, "value": {"tensor": {"dtype": "DT_INT32", "tensorShape": {"dim": [{"size": "4"}]}}}}}, {"name": "StatefulPartitionedCall/tf_esm_model/esm/encoder/layer_._4/attention/self/mul/y", "op": "Const", "attr": {"value": {"tensor": {"dtype": "DT_FLOAT", "tensorShape": {}}}, "dtype": {"type": "DT_FLOAT"}}}, {"name": "StatefulPartitionedCall/tf_esm_model/esm/encoder/layer_._4/attention/self/rotary_embeddings/strided_slice_4/stack", "op": "Const", "attr": {"dtype": {"type": "DT_INT32"}, "value": {"tensor": {"dtype": "DT_INT32", "tensorShape": {"dim": [{"size": "1"}]}}}}}, {"name": "StatefulPartitionedCall/tf_esm_model/esm/encoder/layer_._4/attention/self/rotary_embeddings/strided_slice_4/stack_1", "op": "Const", "attr": {"dtype": {"type": "DT_INT32"}, "value": {"tensor": {"dtype": "DT_INT32", "tensorShape": {"dim": [{"size": "1"}]}}}}}, {"name": "StatefulPartitionedCall/tf_esm_model/esm/encoder/layer_._4/attention/self/rotary_embeddings/strided_slice_4/stack_2", "op": "Const", "attr": {"value": {"tensor": {"dtype": "DT_INT32", "tensorShape": {"dim": [{"size": "1"}]}}}, "dtype": {"type": "DT_INT32"}}}, {"name": "StatefulPartitionedCall/tf_esm_model/esm/encoder/layer_._4/attention/self/rotary_embeddings/strided_slice_5/stack_1/3", "op": "Const", "attr": {"value": {"tensor": {"dtype": "DT_INT32", "tensorShape": {}}}, "dtype": {"type": "DT_INT32"}}}, {"name": "StatefulPartitionedCall/tf_esm_model/esm/encoder/layer_._4/attention/self/rotary_embeddings/strided_slice_5/stack_2", "op": "Const", "attr": {"dtype": {"type": "DT_INT32"}, "value": {"tensor": {"dtype": "DT_INT32", "tensorShape": {"dim": [{"size": "4"}]}}}}}, {"name": "StatefulPartitionedCall/tf_esm_model/esm/encoder/layer_._4/attention/self/rotary_embeddings/strided_slice_7/stack", "op": "Const", "attr": {"value": {"tensor": {"dtype": "DT_INT32", "tensorShape": {"dim": [{"size": "4"}]}}}, "dtype": {"type": "DT_INT32"}}}, {"name": "StatefulPartitionedCall/tf_esm_model/esm/encoder/layer_._4/attention/self/rotary_embeddings/strided_slice_7/stack_1/0", "op": "Const", "attr": {"dtype": {"type": "DT_INT32"}, "value": {"tensor": {"dtype": "DT_INT32", "tensorShape": {}}}}}, {"name": "StatefulPartitionedCall/tf_esm_model/esm/encoder/layer_._4/attention/self/rotary_embeddings/strided_slice_7/stack_1/1", "op": "Const", "attr": {"value": {"tensor": {"dtype": "DT_INT32", "tensorShape": {}}}, "dtype": {"type": "DT_INT32"}}}, {"name": "StatefulPartitionedCall/tf_esm_model/esm/encoder/layer_._4/attention/self/rotary_embeddings/strided_slice_6/stack", "op": "Const", "attr": {"value": {"tensor": {"dtype": "DT_INT32", "tensorShape": {"dim": [{"size": "1"}]}}}, "dtype": {"type": "DT_INT32"}}}, {"name": "StatefulPartitionedCall/tf_esm_model/esm/encoder/layer_._4/attention/self/rotary_embeddings/strided_slice_6/stack_1", "op": "Const", "attr": {"value": {"tensor": {"dtype": "DT_INT32", "tensorShape": {"dim": [{"size": "1"}]}}}, "dtype": {"type": "DT_INT32"}}}, {"name": "StatefulPartitionedCall/tf_esm_model/esm/encoder/layer_._4/attention/self/rotary_embeddings/strided_slice_6/stack_2", "op": "Const", "attr": {"value": {"tensor": {"dtype": "DT_INT32", "tensorShape": {"dim": [{"size": "1"}]}}}, "dtype": {"type": "DT_INT32"}}}, {"name": "StatefulPartitionedCall/tf_esm_model/esm/encoder/layer_._4/attention/self/rotary_embeddings/strided_slice_7/stack_1/3", "op": "Const", "attr": {"value": {"tensor": {"dtype": "DT_INT32", "tensorShape": {}}}, "dtype": {"type": "DT_INT32"}}}, {"name": "StatefulPartitionedCall/tf_esm_model/esm/encoder/layer_._4/attention/self/rotary_embeddings/strided_slice_7/stack_2", "op": "Const", "attr": {"dtype": {"type": "DT_INT32"}, "value": {"tensor": {"dtype": "DT_INT32", "tensorShape": {"dim": [{"size": "4"}]}}}}}, {"name": "StatefulPartitionedCall/tf_esm_model/esm/encoder/layer_._4/attention/self/rotary_embeddings/split_1/split_dim", "op": "Const", "attr": {"dtype": {"type": "DT_INT32"}, "value": {"tensor": {"dtype": "DT_INT32", "tensorShape": {}}}}}, {"name": "StatefulPartitionedCall/tf_esm_model/esm/encoder/layer_._4/attention/self/rotary_embeddings/concat_2/axis", "op": "Const", "attr": {"dtype": {"type": "DT_INT32"}, "value": {"tensor": {"dtype": "DT_INT32", "tensorShape": {}}}}}, {"name": "StatefulPartitionedCall/tf_esm_model/esm/encoder/layer_._4/attention/self/rotary_embeddings/range/start", "op": "Const", "attr": {"dtype": {"type": "DT_FLOAT"}, "value": {"tensor": {"dtype": "DT_FLOAT", "tensorShape": {}}}}}, {"name": "StatefulPartitionedCall/tf_esm_model/esm/encoder/layer_._4/attention/self/rotary_embeddings/strided_slice/stack", "op": "Const", "attr": {"value": {"tensor": {"dtype": "DT_INT32", "tensorShape": {"dim": [{"size": "1"}]}}}, "dtype": {"type": "DT_INT32"}}}, {"name": "StatefulPartitionedCall/tf_esm_model/esm/encoder/layer_._4/attention/self/rotary_embeddings/strided_slice/stack_1", "op": "Const", "attr": {"dtype": {"type": "DT_INT32"}, "value": {"tensor": {"dtype": "DT_INT32", "tensorShape": {"dim": [{"size": "1"}]}}}}}, {"name": "StatefulPartitionedCall/tf_esm_model/esm/encoder/layer_._4/attention/self/rotary_embeddings/strided_slice/stack_2", "op": "Const", "attr": {"dtype": {"type": "DT_INT32"}, "value": {"tensor": {"dtype": "DT_INT32", "tensorShape": {"dim": [{"size": "1"}]}}}}}, {"name": "StatefulPartitionedCall/tf_esm_model/esm/encoder/layer_._4/attention/self/rotary_embeddings/range/delta", "op": "Const", "attr": {"value": {"tensor": {"dtype": "DT_FLOAT", "tensorShape": {}}}, "dtype": {"type": "DT_FLOAT"}}}, {"name": "StatefulPartitionedCall/tf_esm_model/esm/encoder/layer_._4/attention/self/rotary_embeddings/einsum/Einsum/ReadVariableOp", "op": "Const", "attr": {"value": {"tensor": {"dtype": "DT_FLOAT", "tensorShape": {"dim": [{"size": "8"}]}}}, "dtype": {"type": "DT_FLOAT"}}}, {"name": "StatefulPartitionedCall/tf_esm_model/esm/encoder/layer_._4/attention/self/rotary_embeddings/concat/axis", "op": "Const", "attr": {"value": {"tensor": {"dtype": "DT_INT32", "tensorShape": {}}}, "dtype": {"type": "DT_INT32"}}}, {"name": "StatefulPartitionedCall/tf_esm_model/esm/encoder/layer_._4/attention/self/rotary_embeddings/strided_slice_1/stack", "op": "Const", "attr": {"dtype": {"type": "DT_INT32"}, "value": {"tensor": {"dtype": "DT_INT32", "tensorShape": {"dim": [{"size": "4"}]}}}}}, {"name": "StatefulPartitionedCall/tf_esm_model/esm/encoder/layer_._4/attention/self/rotary_embeddings/strided_slice_1/stack_1", "op": "Const", "attr": {"dtype": {"type": "DT_INT32"}, "value": {"tensor": {"dtype": "DT_INT32", "tensorShape": {"dim": [{"size": "4"}]}}}}}, {"name": "StatefulPartitionedCall/tf_esm_model/esm/encoder/layer_._4/attention/self/rotary_embeddings/strided_slice_1/stack_2", "op": "Const", "attr": {"dtype": {"type": "DT_INT32"}, "value": {"tensor": {"dtype": "DT_INT32", "tensorShape": {"dim": [{"size": "4"}]}}}}}, {"name": "StatefulPartitionedCall/tf_esm_model/esm/encoder/layer_._4/attention/self/rotary_embeddings/strided_slice_9/stack", "op": "Const", "attr": {"dtype": {"type": "DT_INT32"}, "value": {"tensor": {"dtype": "DT_INT32", "tensorShape": {"dim": [{"size": "4"}]}}}}}, {"name": "StatefulPartitionedCall/tf_esm_model/esm/encoder/layer_._4/attention/self/rotary_embeddings/strided_slice_9/stack_1/0", "op": "Const", "attr": {"dtype": {"type": "DT_INT32"}, "value": {"tensor": {"dtype": "DT_INT32", "tensorShape": {}}}}}, {"name": "StatefulPartitionedCall/tf_esm_model/esm/encoder/layer_._4/attention/self/rotary_embeddings/strided_slice_9/stack_1/1", "op": "Const", "attr": {"dtype": {"type": "DT_INT32"}, "value": {"tensor": {"dtype": "DT_INT32", "tensorShape": {}}}}}, {"name": "StatefulPartitionedCall/tf_esm_model/esm/encoder/layer_._4/attention/self/strided_slice/stack", "op": "Const", "attr": {"dtype": {"type": "DT_INT32"}, "value": {"tensor": {"dtype": "DT_INT32", "tensorShape": {"dim": [{"size": "1"}]}}}}}, {"name": "StatefulPartitionedCall/tf_esm_model/esm/encoder/layer_._4/attention/self/strided_slice/stack_1", "op": "Const", "attr": {"value": {"tensor": {"dtype": "DT_INT32", "tensorShape": {"dim": [{"size": "1"}]}}}, "dtype": {"type": "DT_INT32"}}}, {"name": "StatefulPartitionedCall/tf_esm_model/esm/encoder/layer_._4/attention/self/strided_slice/stack_2", "op": "Const", "attr": {"value": {"tensor": {"dtype": "DT_INT32", "tensorShape": {"dim": [{"size": "1"}]}}}, "dtype": {"type": "DT_INT32"}}}, {"name": "StatefulPartitionedCall/tf_esm_model/esm/encoder/layer_._4/attention/self/key/Tensordot/Const", "op": "Const", "attr": {"value": {"tensor": {"dtype": "DT_INT32", "tensorShape": {"dim": [{"size": "1"}]}}}, "dtype": {"type": "DT_INT32"}}}, {"name": "StatefulPartitionedCall/tf_esm_model/esm/encoder/layer_._4/attention/self/key/Tensordot/axes", "op": "Const", "attr": {"value": {"tensor": {"dtype": "DT_INT32", "tensorShape": {"dim": [{"size": "1"}]}}}, "dtype": {"type": "DT_INT32"}}}, {"name": "StatefulPartitionedCall/tf_esm_model/esm/encoder/layer_._4/attention/self/key/Tensordot/GatherV2_1/axis", "op": "Const", "attr": {"value": {"tensor": {"dtype": "DT_INT32", "tensorShape": {}}}, "dtype": {"type": "DT_INT32"}}}, {"name": "StatefulPartitionedCall/tf_esm_model/esm/encoder/layer_._4/attention/self/key/Tensordot/Const_1", "op": "Const", "attr": {"dtype": {"type": "DT_INT32"}, "value": {"tensor": {"dtype": "DT_INT32", "tensorShape": {"dim": [{"size": "1"}]}}}}}, {"name": "StatefulPartitionedCall/tf_esm_model/esm/encoder/layer_._4/attention/self/key/Tensordot/ReadVariableOp", "op": "Const", "attr": {"dtype": {"type": "DT_FLOAT"}, "value": {"tensor": {"dtype": "DT_FLOAT", "tensorShape": {"dim": [{"size": "320"}, {"size": "320"}]}}}}}, {"name": "StatefulPartitionedCall/tf_esm_model/esm/encoder/layer_._4/attention/self/key/Tensordot/free", "op": "Const", "attr": {"value": {"tensor": {"dtype": "DT_INT32", "tensorShape": {"dim": [{"size": "2"}]}}}, "dtype": {"type": "DT_INT32"}}}, {"name": "StatefulPartitionedCall/tf_esm_model/esm/encoder/layer_._4/attention/self/key/Tensordot/GatherV2/axis", "op": "Const", "attr": {"value": {"tensor": {"dtype": "DT_INT32", "tensorShape": {}}}, "dtype": {"type": "DT_INT32"}}}, {"name": "StatefulPartitionedCall/tf_esm_model/esm/encoder/layer_._4/attention/self/key/Tensordot/Const_2", "op": "Const", "attr": {"dtype": {"type": "DT_INT32"}, "value": {"tensor": {"dtype": "DT_INT32", "tensorShape": {"dim": [{"size": "1"}]}}}}}, {"name": "StatefulPartitionedCall/tf_esm_model/esm/encoder/layer_._4/attention/self/key/Tensordot/concat_1/axis", "op": "Const", "attr": {"dtype": {"type": "DT_INT32"}, "value": {"tensor": {"dtype": "DT_INT32", "tensorShape": {}}}}}, {"name": "StatefulPartitionedCall/tf_esm_model/esm/encoder/layer_._4/attention/self/key/BiasAdd/ReadVariableOp", "op": "Const", "attr": {"value": {"tensor": {"dtype": "DT_FLOAT", "tensorShape": {"dim": [{"size": "320"}]}}}, "dtype": {"type": "DT_FLOAT"}}}, {"name": "StatefulPartitionedCall/tf_esm_model/esm/encoder/layer_._4/attention/self/strided_slice_1/stack", "op": "Const", "attr": {"dtype": {"type": "DT_INT32"}, "value": {"tensor": {"dtype": "DT_INT32", "tensorShape": {"dim": [{"size": "1"}]}}}}}, {"name": "StatefulPartitionedCall/tf_esm_model/esm/encoder/layer_._4/attention/self/strided_slice_1/stack_1", "op": "Const", "attr": {"value": {"tensor": {"dtype": "DT_INT32", "tensorShape": {"dim": [{"size": "1"}]}}}, "dtype": {"type": "DT_INT32"}}}, {"name": "StatefulPartitionedCall/tf_esm_model/esm/encoder/layer_._4/attention/self/strided_slice_1/stack_2", "op": "Const", "attr": {"value": {"tensor": {"dtype": "DT_INT32", "tensorShape": {"dim": [{"size": "1"}]}}}, "dtype": {"type": "DT_INT32"}}}, {"name": "StatefulPartitionedCall/tf_esm_model/esm/encoder/layer_._4/attention/self/Reshape/shape/2", "op": "Const", "attr": {"value": {"tensor": {"dtype": "DT_INT32", "tensorShape": {}}}, "dtype": {"type": "DT_INT32"}}}, {"name": "StatefulPartitionedCall/tf_esm_model/esm/encoder/layer_._4/attention/self/Reshape/shape/3", "op": "Const", "attr": {"value": {"tensor": {"dtype": "DT_INT32", "tensorShape": {}}}, "dtype": {"type": "DT_INT32"}}}, {"name": "StatefulPartitionedCall/tf_esm_model/esm/encoder/layer_._4/attention/self/transpose/perm", "op": "Const", "attr": {"value": {"tensor": {"dtype": "DT_INT32", "tensorShape": {"dim": [{"size": "4"}]}}}, "dtype": {"type": "DT_INT32"}}}, {"name": "StatefulPartitionedCall/tf_esm_model/esm/encoder/layer_._4/attention/self/rotary_embeddings/strided_slice_8/stack", "op": "Const", "attr": {"value": {"tensor": {"dtype": "DT_INT32", "tensorShape": {"dim": [{"size": "1"}]}}}, "dtype": {"type": "DT_INT32"}}}, {"name": "StatefulPartitionedCall/tf_esm_model/esm/encoder/layer_._4/attention/self/rotary_embeddings/strided_slice_8/stack_1", "op": "Const", "attr": {"value": {"tensor": {"dtype": "DT_INT32", "tensorShape": {"dim": [{"size": "1"}]}}}, "dtype": {"type": "DT_INT32"}}}, {"name": "StatefulPartitionedCall/tf_esm_model/esm/encoder/layer_._4/attention/self/rotary_embeddings/strided_slice_8/stack_2", "op": "Const", "attr": {"dtype": {"type": "DT_INT32"}, "value": {"tensor": {"dtype": "DT_INT32", "tensorShape": {"dim": [{"size": "1"}]}}}}}, {"name": "StatefulPartitionedCall/tf_esm_model/esm/encoder/layer_._4/attention/self/rotary_embeddings/strided_slice_9/stack_1/3", "op": "Const", "attr": {"dtype": {"type": "DT_INT32"}, "value": {"tensor": {"dtype": "DT_INT32", "tensorShape": {}}}}}, {"name": "StatefulPartitionedCall/tf_esm_model/esm/encoder/layer_._4/attention/self/rotary_embeddings/strided_slice_9/stack_2", "op": "Const", "attr": {"dtype": {"type": "DT_INT32"}, "value": {"tensor": {"dtype": "DT_INT32", "tensorShape": {"dim": [{"size": "4"}]}}}}}, {"name": "StatefulPartitionedCall/tf_esm_model/esm/encoder/layer_._4/attention/self/add_1/y", "op": "Const", "attr": {"value": {"tensor": {"dtype": "DT_FLOAT", "tensorShape": {}}}, "dtype": {"type": "DT_FLOAT"}}}, {"name": "StatefulPartitionedCall/tf_esm_model/esm/encoder/layer_._4/attention/self/strided_slice_2/stack", "op": "Const", "attr": {"dtype": {"type": "DT_INT32"}, "value": {"tensor": {"dtype": "DT_INT32", "tensorShape": {"dim": [{"size": "1"}]}}}}}, {"name": "StatefulPartitionedCall/tf_esm_model/esm/encoder/layer_._4/attention/self/strided_slice_2/stack_1", "op": "Const", "attr": {"value": {"tensor": {"dtype": "DT_INT32", "tensorShape": {"dim": [{"size": "1"}]}}}, "dtype": {"type": "DT_INT32"}}}, {"name": "StatefulPartitionedCall/tf_esm_model/esm/encoder/layer_._4/attention/self/strided_slice_2/stack_2", "op": "Const", "attr": {"value": {"tensor": {"dtype": "DT_INT32", "tensorShape": {"dim": [{"size": "1"}]}}}, "dtype": {"type": "DT_INT32"}}}, {"name": "StatefulPartitionedCall/tf_esm_model/esm/encoder/layer_._4/attention/self/value/Tensordot/Const", "op": "Const", "attr": {"dtype": {"type": "DT_INT32"}, "value": {"tensor": {"dtype": "DT_INT32", "tensorShape": {"dim": [{"size": "1"}]}}}}}, {"name": "StatefulPartitionedCall/tf_esm_model/esm/encoder/layer_._4/attention/self/value/Tensordot/axes", "op": "Const", "attr": {"dtype": {"type": "DT_INT32"}, "value": {"tensor": {"dtype": "DT_INT32", "tensorShape": {"dim": [{"size": "1"}]}}}}}, {"name": "StatefulPartitionedCall/tf_esm_model/esm/encoder/layer_._4/attention/self/value/Tensordot/GatherV2_1/axis", "op": "Const", "attr": {"dtype": {"type": "DT_INT32"}, "value": {"tensor": {"dtype": "DT_INT32", "tensorShape": {}}}}}, {"name": "StatefulPartitionedCall/tf_esm_model/esm/encoder/layer_._4/attention/self/value/Tensordot/Const_1", "op": "Const", "attr": {"dtype": {"type": "DT_INT32"}, "value": {"tensor": {"dtype": "DT_INT32", "tensorShape": {"dim": [{"size": "1"}]}}}}}, {"name": "StatefulPartitionedCall/tf_esm_model/esm/encoder/layer_._4/attention/self/value/Tensordot/ReadVariableOp", "op": "Const", "attr": {"value": {"tensor": {"dtype": "DT_FLOAT", "tensorShape": {"dim": [{"size": "320"}, {"size": "320"}]}}}, "dtype": {"type": "DT_FLOAT"}}}, {"name": "StatefulPartitionedCall/tf_esm_model/esm/encoder/layer_._4/attention/LayerNorm/batchnorm/ReadVariableOp", "op": "Const", "attr": {"dtype": {"type": "DT_FLOAT"}, "value": {"tensor": {"dtype": "DT_FLOAT", "tensorShape": {"dim": [{"size": "320"}]}}}}}, {"name": "StatefulPartitionedCall/tf_esm_model/esm/encoder/layer_._4/attention/LayerNorm/moments/mean/reduction_indices", "op": "Const", "attr": {"value": {"tensor": {"dtype": "DT_INT32", "tensorShape": {"dim": [{"size": "1"}]}}}, "dtype": {"type": "DT_INT32"}}}, {"name": "StatefulPartitionedCall/tf_esm_model/esm/encoder/layer_._4/attention/LayerNorm/moments/variance/reduction_indices", "op": "Const", "attr": {"dtype": {"type": "DT_INT32"}, "value": {"tensor": {"dtype": "DT_INT32", "tensorShape": {"dim": [{"size": "1"}]}}}}}, {"name": "StatefulPartitionedCall/tf_esm_model/esm/encoder/layer_._4/attention/LayerNorm/batchnorm/add/y", "op": "Const", "attr": {"value": {"tensor": {"dtype": "DT_FLOAT", "tensorShape": {}}}, "dtype": {"type": "DT_FLOAT"}}}, {"name": "StatefulPartitionedCall/tf_esm_model/esm/encoder/layer_._4/attention/LayerNorm/batchnorm/mul/ReadVariableOp", "op": "Const", "attr": {"dtype": {"type": "DT_FLOAT"}, "value": {"tensor": {"dtype": "DT_FLOAT", "tensorShape": {"dim": [{"size": "320"}]}}}}}, {"name": "StatefulPartitionedCall/tf_esm_model/esm/encoder/layer_._4/attention/self/value/Tensordot/free", "op": "Const", "attr": {"dtype": {"type": "DT_INT32"}, "value": {"tensor": {"dtype": "DT_INT32", "tensorShape": {"dim": [{"size": "2"}]}}}}}, {"name": "StatefulPartitionedCall/tf_esm_model/esm/encoder/layer_._4/attention/self/value/Tensordot/GatherV2/axis", "op": "Const", "attr": {"dtype": {"type": "DT_INT32"}, "value": {"tensor": {"dtype": "DT_INT32", "tensorShape": {}}}}}, {"name": "StatefulPartitionedCall/tf_esm_model/esm/encoder/layer_._4/attention/self/value/Tensordot/Const_2", "op": "Const", "attr": {"value": {"tensor": {"dtype": "DT_INT32", "tensorShape": {"dim": [{"size": "1"}]}}}, "dtype": {"type": "DT_INT32"}}}, {"name": "StatefulPartitionedCall/tf_esm_model/esm/encoder/layer_._4/attention/self/value/Tensordot/concat_1/axis", "op": "Const", "attr": {"dtype": {"type": "DT_INT32"}, "value": {"tensor": {"dtype": "DT_INT32", "tensorShape": {}}}}}, {"name": "StatefulPartitionedCall/tf_esm_model/esm/encoder/layer_._4/attention/self/value/BiasAdd/ReadVariableOp", "op": "Const", "attr": {"dtype": {"type": "DT_FLOAT"}, "value": {"tensor": {"dtype": "DT_FLOAT", "tensorShape": {"dim": [{"size": "320"}]}}}}}, {"name": "StatefulPartitionedCall/tf_esm_model/esm/encoder/layer_._4/attention/self/strided_slice_3/stack", "op": "Const", "attr": {"value": {"tensor": {"dtype": "DT_INT32", "tensorShape": {"dim": [{"size": "1"}]}}}, "dtype": {"type": "DT_INT32"}}}, {"name": "StatefulPartitionedCall/tf_esm_model/esm/encoder/layer_._4/attention/self/strided_slice_3/stack_1", "op": "Const", "attr": {"dtype": {"type": "DT_INT32"}, "value": {"tensor": {"dtype": "DT_INT32", "tensorShape": {"dim": [{"size": "1"}]}}}}}, {"name": "StatefulPartitionedCall/tf_esm_model/esm/encoder/layer_._4/attention/self/strided_slice_3/stack_2", "op": "Const", "attr": {"value": {"tensor": {"dtype": "DT_INT32", "tensorShape": {"dim": [{"size": "1"}]}}}, "dtype": {"type": "DT_INT32"}}}, {"name": "StatefulPartitionedCall/tf_esm_model/esm/encoder/layer_._4/attention/self/Reshape_1/shape/2", "op": "Const", "attr": {"dtype": {"type": "DT_INT32"}, "value": {"tensor": {"dtype": "DT_INT32", "tensorShape": {}}}}}, {"name": "StatefulPartitionedCall/tf_esm_model/esm/encoder/layer_._4/attention/self/Reshape_1/shape/3", "op": "Const", "attr": {"dtype": {"type": "DT_INT32"}, "value": {"tensor": {"dtype": "DT_INT32", "tensorShape": {}}}}}, {"name": "StatefulPartitionedCall/tf_esm_model/esm/encoder/layer_._4/attention/self/transpose_1/perm", "op": "Const", "attr": {"value": {"tensor": {"dtype": "DT_INT32", "tensorShape": {"dim": [{"size": "4"}]}}}, "dtype": {"type": "DT_INT32"}}}, {"name": "StatefulPartitionedCall/tf_esm_model/esm/encoder/layer_._4/attention/self/transpose_3/perm", "op": "Const", "attr": {"dtype": {"type": "DT_INT32"}, "value": {"tensor": {"dtype": "DT_INT32", "tensorShape": {"dim": [{"size": "4"}]}}}}}, {"name": "StatefulPartitionedCall/tf_esm_model/esm/encoder/layer_._4/attention/self/strided_slice_7/stack", "op": "Const", "attr": {"value": {"tensor": {"dtype": "DT_INT32", "tensorShape": {"dim": [{"size": "1"}]}}}, "dtype": {"type": "DT_INT32"}}}, {"name": "StatefulPartitionedCall/tf_esm_model/esm/encoder/layer_._4/attention/self/strided_slice_7/stack_1", "op": "Const", "attr": {"dtype": {"type": "DT_INT32"}, "value": {"tensor": {"dtype": "DT_INT32", "tensorShape": {"dim": [{"size": "1"}]}}}}}, {"name": "StatefulPartitionedCall/tf_esm_model/esm/encoder/layer_._4/attention/self/strided_slice_7/stack_2", "op": "Const", "attr": {"value": {"tensor": {"dtype": "DT_INT32", "tensorShape": {"dim": [{"size": "1"}]}}}, "dtype": {"type": "DT_INT32"}}}, {"name": "StatefulPartitionedCall/tf_esm_model/esm/encoder/layer_._4/attention/self/Reshape_3/shape/2", "op": "Const", "attr": {"value": {"tensor": {"dtype": "DT_INT32", "tensorShape": {}}}, "dtype": {"type": "DT_INT32"}}}, {"name": "StatefulPartitionedCall/tf_esm_model/esm/encoder/layer_._4/attention/output/dense/Tensordot/free", "op": "Const", "attr": {"dtype": {"type": "DT_INT32"}, "value": {"tensor": {"dtype": "DT_INT32", "tensorShape": {"dim": [{"size": "2"}]}}}}}, {"name": "StatefulPartitionedCall/tf_esm_model/esm/encoder/layer_._4/attention/output/dense/Tensordot/GatherV2/axis", "op": "Const", "attr": {"value": {"tensor": {"dtype": "DT_INT32", "tensorShape": {}}}, "dtype": {"type": "DT_INT32"}}}, {"name": "StatefulPartitionedCall/tf_esm_model/esm/encoder/layer_._4/attention/output/dense/Tensordot/Const_2", "op": "Const", "attr": {"dtype": {"type": "DT_INT32"}, "value": {"tensor": {"dtype": "DT_INT32", "tensorShape": {"dim": [{"size": "1"}]}}}}}, {"name": "StatefulPartitionedCall/tf_esm_model/esm/encoder/layer_._4/attention/output/dense/Tensordot/concat_1/axis", "op": "Const", "attr": {"dtype": {"type": "DT_INT32"}, "value": {"tensor": {"dtype": "DT_INT32", "tensorShape": {}}}}}, {"name": "StatefulPartitionedCall/tf_esm_model/esm/encoder/layer_._4/attention/output/dense/BiasAdd/ReadVariableOp", "op": "Const", "attr": {"dtype": {"type": "DT_FLOAT"}, "value": {"tensor": {"dtype": "DT_FLOAT", "tensorShape": {"dim": [{"size": "320"}]}}}}}, {"name": "StatefulPartitionedCall/tf_esm_model/esm/encoder/layer_._3/output/dense/Tensordot/Const", "op": "Const", "attr": {"value": {"tensor": {"dtype": "DT_INT32", "tensorShape": {"dim": [{"size": "1"}]}}}, "dtype": {"type": "DT_INT32"}}}, {"name": "StatefulPartitionedCall/tf_esm_model/esm/encoder/layer_._3/output/dense/Tensordot/axes", "op": "Const", "attr": {"value": {"tensor": {"dtype": "DT_INT32", "tensorShape": {"dim": [{"size": "1"}]}}}, "dtype": {"type": "DT_INT32"}}}, {"name": "StatefulPartitionedCall/tf_esm_model/esm/encoder/layer_._3/output/dense/Tensordot/GatherV2_1/axis", "op": "Const", "attr": {"value": {"tensor": {"dtype": "DT_INT32", "tensorShape": {}}}, "dtype": {"type": "DT_INT32"}}}, {"name": "StatefulPartitionedCall/tf_esm_model/esm/encoder/layer_._3/output/dense/Tensordot/Const_1", "op": "Const", "attr": {"dtype": {"type": "DT_INT32"}, "value": {"tensor": {"dtype": "DT_INT32", "tensorShape": {"dim": [{"size": "1"}]}}}}}, {"name": "StatefulPartitionedCall/tf_esm_model/esm/encoder/layer_._3/output/dense/Tensordot/ReadVariableOp", "op": "Const", "attr": {"dtype": {"type": "DT_FLOAT"}, "value": {"tensor": {"dtype": "DT_FLOAT", "tensorShape": {"dim": [{"size": "1280"}, {"size": "320"}]}}}}}, {"name": "StatefulPartitionedCall/tf_esm_model/esm/encoder/layer_._3/intermediate/Gelu/mul/x", "op": "Const", "attr": {"dtype": {"type": "DT_FLOAT"}, "value": {"tensor": {"dtype": "DT_FLOAT", "tensorShape": {}}}}}, {"name": "StatefulPartitionedCall/tf_esm_model/esm/encoder/layer_._3/intermediate/Gelu/add/x", "op": "Const", "attr": {"dtype": {"type": "DT_FLOAT"}, "value": {"tensor": {"dtype": "DT_FLOAT", "tensorShape": {}}}}}, {"name": "StatefulPartitionedCall/tf_esm_model/esm/encoder/layer_._3/intermediate/dense/Tensordot/Const", "op": "Const", "attr": {"dtype": {"type": "DT_INT32"}, "value": {"tensor": {"dtype": "DT_INT32", "tensorShape": {"dim": [{"size": "1"}]}}}}}, {"name": "StatefulPartitionedCall/tf_esm_model/esm/encoder/layer_._3/intermediate/dense/Tensordot/axes", "op": "Const", "attr": {"value": {"tensor": {"dtype": "DT_INT32", "tensorShape": {"dim": [{"size": "1"}]}}}, "dtype": {"type": "DT_INT32"}}}, {"name": "StatefulPartitionedCall/tf_esm_model/esm/encoder/layer_._3/intermediate/dense/Tensordot/GatherV2_1/axis", "op": "Const", "attr": {"value": {"tensor": {"dtype": "DT_INT32", "tensorShape": {}}}, "dtype": {"type": "DT_INT32"}}}, {"name": "StatefulPartitionedCall/tf_esm_model/esm/encoder/layer_._3/intermediate/dense/Tensordot/Const_1", "op": "Const", "attr": {"value": {"tensor": {"dtype": "DT_INT32", "tensorShape": {"dim": [{"size": "1"}]}}}, "dtype": {"type": "DT_INT32"}}}, {"name": "StatefulPartitionedCall/tf_esm_model/esm/encoder/layer_._3/intermediate/dense/Tensordot/ReadVariableOp", "op": "Const", "attr": {"dtype": {"type": "DT_FLOAT"}, "value": {"tensor": {"dtype": "DT_FLOAT", "tensorShape": {"dim": [{"size": "320"}, {"size": "1280"}]}}}}}, {"name": "StatefulPartitionedCall/tf_esm_model/esm/encoder/layer_._3/LayerNorm/batchnorm/ReadVariableOp", "op": "Const", "attr": {"value": {"tensor": {"dtype": "DT_FLOAT", "tensorShape": {"dim": [{"size": "320"}]}}}, "dtype": {"type": "DT_FLOAT"}}}, {"name": "StatefulPartitionedCall/tf_esm_model/esm/encoder/layer_._3/LayerNorm/moments/mean/reduction_indices", "op": "Const", "attr": {"value": {"tensor": {"dtype": "DT_INT32", "tensorShape": {"dim": [{"size": "1"}]}}}, "dtype": {"type": "DT_INT32"}}}, {"name": "StatefulPartitionedCall/tf_esm_model/esm/encoder/layer_._3/LayerNorm/moments/variance/reduction_indices", "op": "Const", "attr": {"dtype": {"type": "DT_INT32"}, "value": {"tensor": {"dtype": "DT_INT32", "tensorShape": {"dim": [{"size": "1"}]}}}}}, {"name": "StatefulPartitionedCall/tf_esm_model/esm/encoder/layer_._3/LayerNorm/batchnorm/add/y", "op": "Const", "attr": {"value": {"tensor": {"dtype": "DT_FLOAT", "tensorShape": {}}}, "dtype": {"type": "DT_FLOAT"}}}, {"name": "StatefulPartitionedCall/tf_esm_model/esm/encoder/layer_._3/LayerNorm/batchnorm/mul/ReadVariableOp", "op": "Const", "attr": {"value": {"tensor": {"dtype": "DT_FLOAT", "tensorShape": {"dim": [{"size": "320"}]}}}, "dtype": {"type": "DT_FLOAT"}}}, {"name": "StatefulPartitionedCall/tf_esm_model/esm/encoder/layer_._3/intermediate/dense/Tensordot/free", "op": "Const", "attr": {"dtype": {"type": "DT_INT32"}, "value": {"tensor": {"dtype": "DT_INT32", "tensorShape": {"dim": [{"size": "2"}]}}}}}, {"name": "StatefulPartitionedCall/tf_esm_model/esm/encoder/layer_._3/intermediate/dense/Tensordot/GatherV2/axis", "op": "Const", "attr": {"value": {"tensor": {"dtype": "DT_INT32", "tensorShape": {}}}, "dtype": {"type": "DT_INT32"}}}, {"name": "StatefulPartitionedCall/tf_esm_model/esm/encoder/layer_._3/intermediate/dense/Tensordot/Const_2", "op": "Const", "attr": {"dtype": {"type": "DT_INT32"}, "value": {"tensor": {"dtype": "DT_INT32", "tensorShape": {"dim": [{"size": "1"}]}}}}}, {"name": "StatefulPartitionedCall/tf_esm_model/esm/encoder/layer_._3/intermediate/dense/Tensordot/concat_1/axis", "op": "Const", "attr": {"dtype": {"type": "DT_INT32"}, "value": {"tensor": {"dtype": "DT_INT32", "tensorShape": {}}}}}, {"name": "StatefulPartitionedCall/tf_esm_model/esm/encoder/layer_._3/intermediate/dense/BiasAdd/ReadVariableOp", "op": "Const", "attr": {"value": {"tensor": {"dtype": "DT_FLOAT", "tensorShape": {"dim": [{"size": "1280"}]}}}, "dtype": {"type": "DT_FLOAT"}}}, {"name": "ConstantFolding/StatefulPartitionedCall/tf_esm_model/esm/encoder/layer_._3/intermediate/Gelu/truediv_recip", "op": "Const", "attr": {"value": {"tensor": {"dtype": "DT_FLOAT", "tensorShape": {}}}, "dtype": {"type": "DT_FLOAT"}}}, {"name": "StatefulPartitionedCall/tf_esm_model/esm/encoder/layer_._3/output/dense/Tensordot/free", "op": "Const", "attr": {"value": {"tensor": {"dtype": "DT_INT32", "tensorShape": {"dim": [{"size": "2"}]}}}, "dtype": {"type": "DT_INT32"}}}, {"name": "StatefulPartitionedCall/tf_esm_model/esm/encoder/layer_._3/output/dense/Tensordot/GatherV2/axis", "op": "Const", "attr": {"dtype": {"type": "DT_INT32"}, "value": {"tensor": {"dtype": "DT_INT32", "tensorShape": {}}}}}, {"name": "StatefulPartitionedCall/tf_esm_model/esm/encoder/layer_._3/output/dense/Tensordot/Const_2", "op": "Const", "attr": {"dtype": {"type": "DT_INT32"}, "value": {"tensor": {"dtype": "DT_INT32", "tensorShape": {"dim": [{"size": "1"}]}}}}}, {"name": "StatefulPartitionedCall/tf_esm_model/esm/encoder/layer_._3/output/dense/Tensordot/concat_1/axis", "op": "Const", "attr": {"dtype": {"type": "DT_INT32"}, "value": {"tensor": {"dtype": "DT_INT32", "tensorShape": {}}}}}, {"name": "StatefulPartitionedCall/tf_esm_model/esm/encoder/layer_._3/output/dense/BiasAdd/ReadVariableOp", "op": "Const", "attr": {"dtype": {"type": "DT_FLOAT"}, "value": {"tensor": {"dtype": "DT_FLOAT", "tensorShape": {"dim": [{"size": "320"}]}}}}}, {"name": "StatefulPartitionedCall/tf_esm_model/esm/encoder/layer_._3/attention/output/dense/Tensordot/Const", "op": "Const", "attr": {"value": {"tensor": {"dtype": "DT_INT32", "tensorShape": {"dim": [{"size": "1"}]}}}, "dtype": {"type": "DT_INT32"}}}, {"name": "StatefulPartitionedCall/tf_esm_model/esm/encoder/layer_._3/attention/output/dense/Tensordot/axes", "op": "Const", "attr": {"value": {"tensor": {"dtype": "DT_INT32", "tensorShape": {"dim": [{"size": "1"}]}}}, "dtype": {"type": "DT_INT32"}}}, {"name": "StatefulPartitionedCall/tf_esm_model/esm/encoder/layer_._3/attention/output/dense/Tensordot/GatherV2_1/axis", "op": "Const", "attr": {"value": {"tensor": {"dtype": "DT_INT32", "tensorShape": {}}}, "dtype": {"type": "DT_INT32"}}}, {"name": "StatefulPartitionedCall/tf_esm_model/esm/encoder/layer_._3/attention/output/dense/Tensordot/Const_1", "op": "Const", "attr": {"dtype": {"type": "DT_INT32"}, "value": {"tensor": {"dtype": "DT_INT32", "tensorShape": {"dim": [{"size": "1"}]}}}}}, {"name": "StatefulPartitionedCall/tf_esm_model/esm/encoder/layer_._3/attention/output/dense/Tensordot/ReadVariableOp", "op": "Const", "attr": {"dtype": {"type": "DT_FLOAT"}, "value": {"tensor": {"dtype": "DT_FLOAT", "tensorShape": {"dim": [{"size": "320"}, {"size": "320"}]}}}}}, {"name": "StatefulPartitionedCall/tf_esm_model/esm/encoder/layer_._3/attention/self/strided_slice_6/stack", "op": "Const", "attr": {"value": {"tensor": {"dtype": "DT_INT32", "tensorShape": {"dim": [{"size": "1"}]}}}, "dtype": {"type": "DT_INT32"}}}, {"name": "StatefulPartitionedCall/tf_esm_model/esm/encoder/layer_._3/attention/self/strided_slice_6/stack_1", "op": "Const", "attr": {"value": {"tensor": {"dtype": "DT_INT32", "tensorShape": {"dim": [{"size": "1"}]}}}, "dtype": {"type": "DT_INT32"}}}, {"name": "StatefulPartitionedCall/tf_esm_model/esm/encoder/layer_._3/attention/self/strided_slice_6/stack_2", "op": "Const", "attr": {"dtype": {"type": "DT_INT32"}, "value": {"tensor": {"dtype": "DT_INT32", "tensorShape": {"dim": [{"size": "1"}]}}}}}, {"name": "StatefulPartitionedCall/tf_esm_model/esm/encoder/layer_._3/attention/self/rotary_embeddings/strided_slice_3/stack", "op": "Const", "attr": {"value": {"tensor": {"dtype": "DT_INT32", "tensorShape": {"dim": [{"size": "4"}]}}}, "dtype": {"type": "DT_INT32"}}}, {"name": "StatefulPartitionedCall/tf_esm_model/esm/encoder/layer_._3/attention/self/rotary_embeddings/strided_slice_3/stack_1/0", "op": "Const", "attr": {"value": {"tensor": {"dtype": "DT_INT32", "tensorShape": {}}}, "dtype": {"type": "DT_INT32"}}}, {"name": "StatefulPartitionedCall/tf_esm_model/esm/encoder/layer_._3/attention/self/rotary_embeddings/strided_slice_3/stack_1/1", "op": "Const", "attr": {"dtype": {"type": "DT_INT32"}, "value": {"tensor": {"dtype": "DT_INT32", "tensorShape": {}}}}}, {"name": "StatefulPartitionedCall/tf_esm_model/esm/encoder/layer_._3/attention/self/rotary_embeddings/strided_slice_2/stack", "op": "Const", "attr": {"dtype": {"type": "DT_INT32"}, "value": {"tensor": {"dtype": "DT_INT32", "tensorShape": {"dim": [{"size": "1"}]}}}}}, {"name": "StatefulPartitionedCall/tf_esm_model/esm/encoder/layer_._3/attention/self/rotary_embeddings/strided_slice_2/stack_1", "op": "Const", "attr": {"dtype": {"type": "DT_INT32"}, "value": {"tensor": {"dtype": "DT_INT32", "tensorShape": {"dim": [{"size": "1"}]}}}}}, {"name": "StatefulPartitionedCall/tf_esm_model/esm/encoder/layer_._3/attention/self/rotary_embeddings/strided_slice_2/stack_2", "op": "Const", "attr": {"dtype": {"type": "DT_INT32"}, "value": {"tensor": {"dtype": "DT_INT32", "tensorShape": {"dim": [{"size": "1"}]}}}}}, {"name": "StatefulPartitionedCall/tf_esm_model/esm/encoder/layer_._3/attention/self/rotary_embeddings/strided_slice_3/stack_1/3", "op": "Const", "attr": {"dtype": {"type": "DT_INT32"}, "value": {"tensor": {"dtype": "DT_INT32", "tensorShape": {}}}}}, {"name": "StatefulPartitionedCall/tf_esm_model/esm/encoder/layer_._3/attention/self/rotary_embeddings/strided_slice_3/stack_2", "op": "Const", "attr": {"value": {"tensor": {"dtype": "DT_INT32", "tensorShape": {"dim": [{"size": "4"}]}}}, "dtype": {"type": "DT_INT32"}}}, {"name": "StatefulPartitionedCall/tf_esm_model/esm/encoder/layer_._3/attention/self/rotary_embeddings/split/split_dim", "op": "Const", "attr": {"value": {"tensor": {"dtype": "DT_INT32", "tensorShape": {}}}, "dtype": {"type": "DT_INT32"}}}, {"name": "StatefulPartitionedCall/tf_esm_model/esm/encoder/layer_._3/attention/self/rotary_embeddings/concat_1/axis", "op": "Const", "attr": {"value": {"tensor": {"dtype": "DT_INT32", "tensorShape": {}}}, "dtype": {"type": "DT_INT32"}}}, {"name": "StatefulPartitionedCall/tf_esm_model/esm/encoder/layer_._3/attention/self/rotary_embeddings/strided_slice_5/stack", "op": "Const", "attr": {"value": {"tensor": {"dtype": "DT_INT32", "tensorShape": {"dim": [{"size": "4"}]}}}, "dtype": {"type": "DT_INT32"}}}, {"name": "StatefulPartitionedCall/tf_esm_model/esm/encoder/layer_._3/attention/self/rotary_embeddings/strided_slice_5/stack_1/0", "op": "Const", "attr": {"value": {"tensor": {"dtype": "DT_INT32", "tensorShape": {}}}, "dtype": {"type": "DT_INT32"}}}, {"name": "StatefulPartitionedCall/tf_esm_model/esm/encoder/layer_._3/attention/self/rotary_embeddings/strided_slice_5/stack_1/1", "op": "Const", "attr": {"value": {"tensor": {"dtype": "DT_INT32", "tensorShape": {}}}, "dtype": {"type": "DT_INT32"}}}, {"name": "StatefulPartitionedCall/tf_esm_model/esm/encoder/layer_._3/attention/self/strided_slice_4/stack", "op": "Const", "attr": {"value": {"tensor": {"dtype": "DT_INT32", "tensorShape": {"dim": [{"size": "1"}]}}}, "dtype": {"type": "DT_INT32"}}}, {"name": "StatefulPartitionedCall/tf_esm_model/esm/encoder/layer_._3/attention/self/strided_slice_4/stack_1", "op": "Const", "attr": {"value": {"tensor": {"dtype": "DT_INT32", "tensorShape": {"dim": [{"size": "1"}]}}}, "dtype": {"type": "DT_INT32"}}}, {"name": "StatefulPartitionedCall/tf_esm_model/esm/encoder/layer_._3/attention/self/strided_slice_4/stack_2", "op": "Const", "attr": {"dtype": {"type": "DT_INT32"}, "value": {"tensor": {"dtype": "DT_INT32", "tensorShape": {"dim": [{"size": "1"}]}}}}}, {"name": "StatefulPartitionedCall/tf_esm_model/esm/encoder/layer_._3/attention/self/query/Tensordot/Const", "op": "Const", "attr": {"value": {"tensor": {"dtype": "DT_INT32", "tensorShape": {"dim": [{"size": "1"}]}}}, "dtype": {"type": "DT_INT32"}}}, {"name": "StatefulPartitionedCall/tf_esm_model/esm/encoder/layer_._3/attention/self/query/Tensordot/axes", "op": "Const", "attr": {"dtype": {"type": "DT_INT32"}, "value": {"tensor": {"dtype": "DT_INT32", "tensorShape": {"dim": [{"size": "1"}]}}}}}, {"name": "StatefulPartitionedCall/tf_esm_model/esm/encoder/layer_._3/attention/self/query/Tensordot/GatherV2_1/axis", "op": "Const", "attr": {"value": {"tensor": {"dtype": "DT_INT32", "tensorShape": {}}}, "dtype": {"type": "DT_INT32"}}}, {"name": "StatefulPartitionedCall/tf_esm_model/esm/encoder/layer_._3/attention/self/query/Tensordot/Const_1", "op": "Const", "attr": {"value": {"tensor": {"dtype": "DT_INT32", "tensorShape": {"dim": [{"size": "1"}]}}}, "dtype": {"type": "DT_INT32"}}}, {"name": "StatefulPartitionedCall/tf_esm_model/esm/encoder/layer_._3/attention/self/query/Tensordot/ReadVariableOp", "op": "Const", "attr": {"value": {"tensor": {"dtype": "DT_FLOAT", "tensorShape": {"dim": [{"size": "320"}, {"size": "320"}]}}}, "dtype": {"type": "DT_FLOAT"}}}, {"name": "StatefulPartitionedCall/tf_esm_model/esm/encoder/layer_._3/attention/self/query/Tensordot/free", "op": "Const", "attr": {"dtype": {"type": "DT_INT32"}, "value": {"tensor": {"dtype": "DT_INT32", "tensorShape": {"dim": [{"size": "2"}]}}}}}, {"name": "StatefulPartitionedCall/tf_esm_model/esm/encoder/layer_._3/attention/self/query/Tensordot/GatherV2/axis", "op": "Const", "attr": {"dtype": {"type": "DT_INT32"}, "value": {"tensor": {"dtype": "DT_INT32", "tensorShape": {}}}}}, {"name": "StatefulPartitionedCall/tf_esm_model/esm/encoder/layer_._3/attention/self/query/Tensordot/Const_2", "op": "Const", "attr": {"dtype": {"type": "DT_INT32"}, "value": {"tensor": {"dtype": "DT_INT32", "tensorShape": {"dim": [{"size": "1"}]}}}}}, {"name": "StatefulPartitionedCall/tf_esm_model/esm/encoder/layer_._3/attention/self/query/Tensordot/concat_1/axis", "op": "Const", "attr": {"dtype": {"type": "DT_INT32"}, "value": {"tensor": {"dtype": "DT_INT32", "tensorShape": {}}}}}, {"name": "StatefulPartitionedCall/tf_esm_model/esm/encoder/layer_._3/attention/self/query/BiasAdd/ReadVariableOp", "op": "Const", "attr": {"dtype": {"type": "DT_FLOAT"}, "value": {"tensor": {"dtype": "DT_FLOAT", "tensorShape": {"dim": [{"size": "320"}]}}}}}, {"name": "StatefulPartitionedCall/tf_esm_model/esm/encoder/layer_._3/attention/self/strided_slice_5/stack", "op": "Const", "attr": {"value": {"tensor": {"dtype": "DT_INT32", "tensorShape": {"dim": [{"size": "1"}]}}}, "dtype": {"type": "DT_INT32"}}}, {"name": "StatefulPartitionedCall/tf_esm_model/esm/encoder/layer_._3/attention/self/strided_slice_5/stack_1", "op": "Const", "attr": {"dtype": {"type": "DT_INT32"}, "value": {"tensor": {"dtype": "DT_INT32", "tensorShape": {"dim": [{"size": "1"}]}}}}}, {"name": "StatefulPartitionedCall/tf_esm_model/esm/encoder/layer_._3/attention/self/strided_slice_5/stack_2", "op": "Const", "attr": {"value": {"tensor": {"dtype": "DT_INT32", "tensorShape": {"dim": [{"size": "1"}]}}}, "dtype": {"type": "DT_INT32"}}}, {"name": "StatefulPartitionedCall/tf_esm_model/esm/encoder/layer_._3/attention/self/Reshape_2/shape/2", "op": "Const", "attr": {"dtype": {"type": "DT_INT32"}, "value": {"tensor": {"dtype": "DT_INT32", "tensorShape": {}}}}}, {"name": "StatefulPartitionedCall/tf_esm_model/esm/encoder/layer_._3/attention/self/Reshape_2/shape/3", "op": "Const", "attr": {"dtype": {"type": "DT_INT32"}, "value": {"tensor": {"dtype": "DT_INT32", "tensorShape": {}}}}}, {"name": "StatefulPartitionedCall/tf_esm_model/esm/encoder/layer_._3/attention/self/transpose_2/perm", "op": "Const", "attr": {"dtype": {"type": "DT_INT32"}, "value": {"tensor": {"dtype": "DT_INT32", "tensorShape": {"dim": [{"size": "4"}]}}}}}, {"name": "StatefulPartitionedCall/tf_esm_model/esm/encoder/layer_._3/attention/self/mul/y", "op": "Const", "attr": {"dtype": {"type": "DT_FLOAT"}, "value": {"tensor": {"dtype": "DT_FLOAT", "tensorShape": {}}}}}, {"name": "StatefulPartitionedCall/tf_esm_model/esm/encoder/layer_._3/attention/self/rotary_embeddings/strided_slice_4/stack", "op": "Const", "attr": {"value": {"tensor": {"dtype": "DT_INT32", "tensorShape": {"dim": [{"size": "1"}]}}}, "dtype": {"type": "DT_INT32"}}}, {"name": "StatefulPartitionedCall/tf_esm_model/esm/encoder/layer_._3/attention/self/rotary_embeddings/strided_slice_4/stack_1", "op": "Const", "attr": {"value": {"tensor": {"dtype": "DT_INT32", "tensorShape": {"dim": [{"size": "1"}]}}}, "dtype": {"type": "DT_INT32"}}}, {"name": "StatefulPartitionedCall/tf_esm_model/esm/encoder/layer_._3/attention/self/rotary_embeddings/strided_slice_4/stack_2", "op": "Const", "attr": {"value": {"tensor": {"dtype": "DT_INT32", "tensorShape": {"dim": [{"size": "1"}]}}}, "dtype": {"type": "DT_INT32"}}}, {"name": "StatefulPartitionedCall/tf_esm_model/esm/encoder/layer_._3/attention/self/rotary_embeddings/strided_slice_5/stack_1/3", "op": "Const", "attr": {"dtype": {"type": "DT_INT32"}, "value": {"tensor": {"dtype": "DT_INT32", "tensorShape": {}}}}}, {"name": "StatefulPartitionedCall/tf_esm_model/esm/encoder/layer_._3/attention/self/rotary_embeddings/strided_slice_5/stack_2", "op": "Const", "attr": {"value": {"tensor": {"dtype": "DT_INT32", "tensorShape": {"dim": [{"size": "4"}]}}}, "dtype": {"type": "DT_INT32"}}}, {"name": "StatefulPartitionedCall/tf_esm_model/esm/encoder/layer_._3/attention/self/rotary_embeddings/strided_slice_7/stack", "op": "Const", "attr": {"dtype": {"type": "DT_INT32"}, "value": {"tensor": {"dtype": "DT_INT32", "tensorShape": {"dim": [{"size": "4"}]}}}}}, {"name": "StatefulPartitionedCall/tf_esm_model/esm/encoder/layer_._3/attention/self/rotary_embeddings/strided_slice_7/stack_1/0", "op": "Const", "attr": {"value": {"tensor": {"dtype": "DT_INT32", "tensorShape": {}}}, "dtype": {"type": "DT_INT32"}}}, {"name": "StatefulPartitionedCall/tf_esm_model/esm/encoder/layer_._3/attention/self/rotary_embeddings/strided_slice_7/stack_1/1", "op": "Const", "attr": {"value": {"tensor": {"dtype": "DT_INT32", "tensorShape": {}}}, "dtype": {"type": "DT_INT32"}}}, {"name": "StatefulPartitionedCall/tf_esm_model/esm/encoder/layer_._3/attention/self/rotary_embeddings/strided_slice_6/stack", "op": "Const", "attr": {"value": {"tensor": {"dtype": "DT_INT32", "tensorShape": {"dim": [{"size": "1"}]}}}, "dtype": {"type": "DT_INT32"}}}, {"name": "StatefulPartitionedCall/tf_esm_model/esm/encoder/layer_._3/attention/self/rotary_embeddings/strided_slice_6/stack_1", "op": "Const", "attr": {"dtype": {"type": "DT_INT32"}, "value": {"tensor": {"dtype": "DT_INT32", "tensorShape": {"dim": [{"size": "1"}]}}}}}, {"name": "StatefulPartitionedCall/tf_esm_model/esm/encoder/layer_._3/attention/self/rotary_embeddings/strided_slice_6/stack_2", "op": "Const", "attr": {"value": {"tensor": {"dtype": "DT_INT32", "tensorShape": {"dim": [{"size": "1"}]}}}, "dtype": {"type": "DT_INT32"}}}, {"name": "StatefulPartitionedCall/tf_esm_model/esm/encoder/layer_._3/attention/self/rotary_embeddings/strided_slice_7/stack_1/3", "op": "Const", "attr": {"dtype": {"type": "DT_INT32"}, "value": {"tensor": {"dtype": "DT_INT32", "tensorShape": {}}}}}, {"name": "StatefulPartitionedCall/tf_esm_model/esm/encoder/layer_._3/attention/self/rotary_embeddings/strided_slice_7/stack_2", "op": "Const", "attr": {"value": {"tensor": {"dtype": "DT_INT32", "tensorShape": {"dim": [{"size": "4"}]}}}, "dtype": {"type": "DT_INT32"}}}, {"name": "StatefulPartitionedCall/tf_esm_model/esm/encoder/layer_._3/attention/self/rotary_embeddings/split_1/split_dim", "op": "Const", "attr": {"value": {"tensor": {"dtype": "DT_INT32", "tensorShape": {}}}, "dtype": {"type": "DT_INT32"}}}, {"name": "StatefulPartitionedCall/tf_esm_model/esm/encoder/layer_._3/attention/self/rotary_embeddings/concat_2/axis", "op": "Const", "attr": {"dtype": {"type": "DT_INT32"}, "value": {"tensor": {"dtype": "DT_INT32", "tensorShape": {}}}}}, {"name": "StatefulPartitionedCall/tf_esm_model/esm/encoder/layer_._3/attention/self/rotary_embeddings/range/start", "op": "Const", "attr": {"value": {"tensor": {"dtype": "DT_FLOAT", "tensorShape": {}}}, "dtype": {"type": "DT_FLOAT"}}}, {"name": "StatefulPartitionedCall/tf_esm_model/esm/encoder/layer_._3/attention/self/rotary_embeddings/strided_slice/stack", "op": "Const", "attr": {"value": {"tensor": {"dtype": "DT_INT32", "tensorShape": {"dim": [{"size": "1"}]}}}, "dtype": {"type": "DT_INT32"}}}, {"name": "StatefulPartitionedCall/tf_esm_model/esm/encoder/layer_._3/attention/self/rotary_embeddings/strided_slice/stack_1", "op": "Const", "attr": {"dtype": {"type": "DT_INT32"}, "value": {"tensor": {"dtype": "DT_INT32", "tensorShape": {"dim": [{"size": "1"}]}}}}}, {"name": "StatefulPartitionedCall/tf_esm_model/esm/encoder/layer_._3/attention/self/rotary_embeddings/strided_slice/stack_2", "op": "Const", "attr": {"value": {"tensor": {"dtype": "DT_INT32", "tensorShape": {"dim": [{"size": "1"}]}}}, "dtype": {"type": "DT_INT32"}}}, {"name": "StatefulPartitionedCall/tf_esm_model/esm/encoder/layer_._3/attention/self/rotary_embeddings/range/delta", "op": "Const", "attr": {"dtype": {"type": "DT_FLOAT"}, "value": {"tensor": {"dtype": "DT_FLOAT", "tensorShape": {}}}}}, {"name": "StatefulPartitionedCall/tf_esm_model/esm/encoder/layer_._3/attention/self/rotary_embeddings/einsum/Einsum/ReadVariableOp", "op": "Const", "attr": {"dtype": {"type": "DT_FLOAT"}, "value": {"tensor": {"dtype": "DT_FLOAT", "tensorShape": {"dim": [{"size": "8"}]}}}}}, {"name": "StatefulPartitionedCall/tf_esm_model/esm/encoder/layer_._3/attention/self/rotary_embeddings/concat/axis", "op": "Const", "attr": {"dtype": {"type": "DT_INT32"}, "value": {"tensor": {"dtype": "DT_INT32", "tensorShape": {}}}}}, {"name": "StatefulPartitionedCall/tf_esm_model/esm/encoder/layer_._3/attention/self/rotary_embeddings/strided_slice_1/stack", "op": "Const", "attr": {"value": {"tensor": {"dtype": "DT_INT32", "tensorShape": {"dim": [{"size": "4"}]}}}, "dtype": {"type": "DT_INT32"}}}, {"name": "StatefulPartitionedCall/tf_esm_model/esm/encoder/layer_._3/attention/self/rotary_embeddings/strided_slice_1/stack_1", "op": "Const", "attr": {"dtype": {"type": "DT_INT32"}, "value": {"tensor": {"dtype": "DT_INT32", "tensorShape": {"dim": [{"size": "4"}]}}}}}, {"name": "StatefulPartitionedCall/tf_esm_model/esm/encoder/layer_._3/attention/self/rotary_embeddings/strided_slice_1/stack_2", "op": "Const", "attr": {"dtype": {"type": "DT_INT32"}, "value": {"tensor": {"dtype": "DT_INT32", "tensorShape": {"dim": [{"size": "4"}]}}}}}, {"name": "StatefulPartitionedCall/tf_esm_model/esm/encoder/layer_._3/attention/self/rotary_embeddings/strided_slice_9/stack", "op": "Const", "attr": {"value": {"tensor": {"dtype": "DT_INT32", "tensorShape": {"dim": [{"size": "4"}]}}}, "dtype": {"type": "DT_INT32"}}}, {"name": "StatefulPartitionedCall/tf_esm_model/esm/encoder/layer_._3/attention/self/rotary_embeddings/strided_slice_9/stack_1/0", "op": "Const", "attr": {"value": {"tensor": {"dtype": "DT_INT32", "tensorShape": {}}}, "dtype": {"type": "DT_INT32"}}}, {"name": "StatefulPartitionedCall/tf_esm_model/esm/encoder/layer_._3/attention/self/rotary_embeddings/strided_slice_9/stack_1/1", "op": "Const", "attr": {"dtype": {"type": "DT_INT32"}, "value": {"tensor": {"dtype": "DT_INT32", "tensorShape": {}}}}}, {"name": "StatefulPartitionedCall/tf_esm_model/esm/encoder/layer_._3/attention/self/strided_slice/stack", "op": "Const", "attr": {"value": {"tensor": {"dtype": "DT_INT32", "tensorShape": {"dim": [{"size": "1"}]}}}, "dtype": {"type": "DT_INT32"}}}, {"name": "StatefulPartitionedCall/tf_esm_model/esm/encoder/layer_._3/attention/self/strided_slice/stack_1", "op": "Const", "attr": {"value": {"tensor": {"dtype": "DT_INT32", "tensorShape": {"dim": [{"size": "1"}]}}}, "dtype": {"type": "DT_INT32"}}}, {"name": "StatefulPartitionedCall/tf_esm_model/esm/encoder/layer_._3/attention/self/strided_slice/stack_2", "op": "Const", "attr": {"value": {"tensor": {"dtype": "DT_INT32", "tensorShape": {"dim": [{"size": "1"}]}}}, "dtype": {"type": "DT_INT32"}}}, {"name": "StatefulPartitionedCall/tf_esm_model/esm/encoder/layer_._3/attention/self/key/Tensordot/Const", "op": "Const", "attr": {"dtype": {"type": "DT_INT32"}, "value": {"tensor": {"dtype": "DT_INT32", "tensorShape": {"dim": [{"size": "1"}]}}}}}, {"name": "StatefulPartitionedCall/tf_esm_model/esm/encoder/layer_._3/attention/self/key/Tensordot/axes", "op": "Const", "attr": {"value": {"tensor": {"dtype": "DT_INT32", "tensorShape": {"dim": [{"size": "1"}]}}}, "dtype": {"type": "DT_INT32"}}}, {"name": "StatefulPartitionedCall/tf_esm_model/esm/encoder/layer_._3/attention/self/key/Tensordot/GatherV2_1/axis", "op": "Const", "attr": {"dtype": {"type": "DT_INT32"}, "value": {"tensor": {"dtype": "DT_INT32", "tensorShape": {}}}}}, {"name": "StatefulPartitionedCall/tf_esm_model/esm/encoder/layer_._3/attention/self/key/Tensordot/Const_1", "op": "Const", "attr": {"value": {"tensor": {"dtype": "DT_INT32", "tensorShape": {"dim": [{"size": "1"}]}}}, "dtype": {"type": "DT_INT32"}}}, {"name": "StatefulPartitionedCall/tf_esm_model/esm/encoder/layer_._3/attention/self/key/Tensordot/ReadVariableOp", "op": "Const", "attr": {"value": {"tensor": {"dtype": "DT_FLOAT", "tensorShape": {"dim": [{"size": "320"}, {"size": "320"}]}}}, "dtype": {"type": "DT_FLOAT"}}}, {"name": "StatefulPartitionedCall/tf_esm_model/esm/encoder/layer_._3/attention/self/key/Tensordot/free", "op": "Const", "attr": {"value": {"tensor": {"dtype": "DT_INT32", "tensorShape": {"dim": [{"size": "2"}]}}}, "dtype": {"type": "DT_INT32"}}}, {"name": "StatefulPartitionedCall/tf_esm_model/esm/encoder/layer_._3/attention/self/key/Tensordot/GatherV2/axis", "op": "Const", "attr": {"value": {"tensor": {"dtype": "DT_INT32", "tensorShape": {}}}, "dtype": {"type": "DT_INT32"}}}, {"name": "StatefulPartitionedCall/tf_esm_model/esm/encoder/layer_._3/attention/self/key/Tensordot/Const_2", "op": "Const", "attr": {"value": {"tensor": {"dtype": "DT_INT32", "tensorShape": {"dim": [{"size": "1"}]}}}, "dtype": {"type": "DT_INT32"}}}, {"name": "StatefulPartitionedCall/tf_esm_model/esm/encoder/layer_._3/attention/self/key/Tensordot/concat_1/axis", "op": "Const", "attr": {"dtype": {"type": "DT_INT32"}, "value": {"tensor": {"dtype": "DT_INT32", "tensorShape": {}}}}}, {"name": "StatefulPartitionedCall/tf_esm_model/esm/encoder/layer_._3/attention/self/key/BiasAdd/ReadVariableOp", "op": "Const", "attr": {"value": {"tensor": {"dtype": "DT_FLOAT", "tensorShape": {"dim": [{"size": "320"}]}}}, "dtype": {"type": "DT_FLOAT"}}}, {"name": "StatefulPartitionedCall/tf_esm_model/esm/encoder/layer_._3/attention/self/strided_slice_1/stack", "op": "Const", "attr": {"value": {"tensor": {"dtype": "DT_INT32", "tensorShape": {"dim": [{"size": "1"}]}}}, "dtype": {"type": "DT_INT32"}}}, {"name": "StatefulPartitionedCall/tf_esm_model/esm/encoder/layer_._3/attention/self/strided_slice_1/stack_1", "op": "Const", "attr": {"value": {"tensor": {"dtype": "DT_INT32", "tensorShape": {"dim": [{"size": "1"}]}}}, "dtype": {"type": "DT_INT32"}}}, {"name": "StatefulPartitionedCall/tf_esm_model/esm/encoder/layer_._3/attention/self/strided_slice_1/stack_2", "op": "Const", "attr": {"value": {"tensor": {"dtype": "DT_INT32", "tensorShape": {"dim": [{"size": "1"}]}}}, "dtype": {"type": "DT_INT32"}}}, {"name": "StatefulPartitionedCall/tf_esm_model/esm/encoder/layer_._3/attention/self/Reshape/shape/2", "op": "Const", "attr": {"value": {"tensor": {"dtype": "DT_INT32", "tensorShape": {}}}, "dtype": {"type": "DT_INT32"}}}, {"name": "StatefulPartitionedCall/tf_esm_model/esm/encoder/layer_._3/attention/self/Reshape/shape/3", "op": "Const", "attr": {"dtype": {"type": "DT_INT32"}, "value": {"tensor": {"dtype": "DT_INT32", "tensorShape": {}}}}}, {"name": "StatefulPartitionedCall/tf_esm_model/esm/encoder/layer_._3/attention/self/transpose/perm", "op": "Const", "attr": {"value": {"tensor": {"dtype": "DT_INT32", "tensorShape": {"dim": [{"size": "4"}]}}}, "dtype": {"type": "DT_INT32"}}}, {"name": "StatefulPartitionedCall/tf_esm_model/esm/encoder/layer_._3/attention/self/rotary_embeddings/strided_slice_8/stack", "op": "Const", "attr": {"dtype": {"type": "DT_INT32"}, "value": {"tensor": {"dtype": "DT_INT32", "tensorShape": {"dim": [{"size": "1"}]}}}}}, {"name": "StatefulPartitionedCall/tf_esm_model/esm/encoder/layer_._3/attention/self/rotary_embeddings/strided_slice_8/stack_1", "op": "Const", "attr": {"dtype": {"type": "DT_INT32"}, "value": {"tensor": {"dtype": "DT_INT32", "tensorShape": {"dim": [{"size": "1"}]}}}}}, {"name": "StatefulPartitionedCall/tf_esm_model/esm/encoder/layer_._3/attention/self/rotary_embeddings/strided_slice_8/stack_2", "op": "Const", "attr": {"dtype": {"type": "DT_INT32"}, "value": {"tensor": {"dtype": "DT_INT32", "tensorShape": {"dim": [{"size": "1"}]}}}}}, {"name": "StatefulPartitionedCall/tf_esm_model/esm/encoder/layer_._3/attention/self/rotary_embeddings/strided_slice_9/stack_1/3", "op": "Const", "attr": {"dtype": {"type": "DT_INT32"}, "value": {"tensor": {"dtype": "DT_INT32", "tensorShape": {}}}}}, {"name": "StatefulPartitionedCall/tf_esm_model/esm/encoder/layer_._3/attention/self/rotary_embeddings/strided_slice_9/stack_2", "op": "Const", "attr": {"value": {"tensor": {"dtype": "DT_INT32", "tensorShape": {"dim": [{"size": "4"}]}}}, "dtype": {"type": "DT_INT32"}}}, {"name": "StatefulPartitionedCall/tf_esm_model/esm/encoder/layer_._3/attention/self/add_1/y", "op": "Const", "attr": {"dtype": {"type": "DT_FLOAT"}, "value": {"tensor": {"dtype": "DT_FLOAT", "tensorShape": {}}}}}, {"name": "StatefulPartitionedCall/tf_esm_model/esm/encoder/layer_._3/attention/self/strided_slice_2/stack", "op": "Const", "attr": {"value": {"tensor": {"dtype": "DT_INT32", "tensorShape": {"dim": [{"size": "1"}]}}}, "dtype": {"type": "DT_INT32"}}}, {"name": "StatefulPartitionedCall/tf_esm_model/esm/encoder/layer_._3/attention/self/strided_slice_2/stack_1", "op": "Const", "attr": {"value": {"tensor": {"dtype": "DT_INT32", "tensorShape": {"dim": [{"size": "1"}]}}}, "dtype": {"type": "DT_INT32"}}}, {"name": "StatefulPartitionedCall/tf_esm_model/esm/encoder/layer_._3/attention/self/strided_slice_2/stack_2", "op": "Const", "attr": {"value": {"tensor": {"dtype": "DT_INT32", "tensorShape": {"dim": [{"size": "1"}]}}}, "dtype": {"type": "DT_INT32"}}}, {"name": "StatefulPartitionedCall/tf_esm_model/esm/encoder/layer_._3/attention/self/value/Tensordot/Const", "op": "Const", "attr": {"value": {"tensor": {"dtype": "DT_INT32", "tensorShape": {"dim": [{"size": "1"}]}}}, "dtype": {"type": "DT_INT32"}}}, {"name": "StatefulPartitionedCall/tf_esm_model/esm/encoder/layer_._3/attention/self/value/Tensordot/axes", "op": "Const", "attr": {"dtype": {"type": "DT_INT32"}, "value": {"tensor": {"dtype": "DT_INT32", "tensorShape": {"dim": [{"size": "1"}]}}}}}, {"name": "StatefulPartitionedCall/tf_esm_model/esm/encoder/layer_._3/attention/self/value/Tensordot/GatherV2_1/axis", "op": "Const", "attr": {"dtype": {"type": "DT_INT32"}, "value": {"tensor": {"dtype": "DT_INT32", "tensorShape": {}}}}}, {"name": "StatefulPartitionedCall/tf_esm_model/esm/encoder/layer_._3/attention/self/value/Tensordot/Const_1", "op": "Const", "attr": {"value": {"tensor": {"dtype": "DT_INT32", "tensorShape": {"dim": [{"size": "1"}]}}}, "dtype": {"type": "DT_INT32"}}}, {"name": "StatefulPartitionedCall/tf_esm_model/esm/encoder/layer_._3/attention/self/value/Tensordot/ReadVariableOp", "op": "Const", "attr": {"value": {"tensor": {"dtype": "DT_FLOAT", "tensorShape": {"dim": [{"size": "320"}, {"size": "320"}]}}}, "dtype": {"type": "DT_FLOAT"}}}, {"name": "StatefulPartitionedCall/tf_esm_model/esm/encoder/layer_._3/attention/LayerNorm/batchnorm/ReadVariableOp", "op": "Const", "attr": {"value": {"tensor": {"dtype": "DT_FLOAT", "tensorShape": {"dim": [{"size": "320"}]}}}, "dtype": {"type": "DT_FLOAT"}}}, {"name": "StatefulPartitionedCall/tf_esm_model/esm/encoder/layer_._3/attention/LayerNorm/moments/mean/reduction_indices", "op": "Const", "attr": {"dtype": {"type": "DT_INT32"}, "value": {"tensor": {"dtype": "DT_INT32", "tensorShape": {"dim": [{"size": "1"}]}}}}}, {"name": "StatefulPartitionedCall/tf_esm_model/esm/encoder/layer_._3/attention/LayerNorm/moments/variance/reduction_indices", "op": "Const", "attr": {"dtype": {"type": "DT_INT32"}, "value": {"tensor": {"dtype": "DT_INT32", "tensorShape": {"dim": [{"size": "1"}]}}}}}, {"name": "StatefulPartitionedCall/tf_esm_model/esm/encoder/layer_._3/attention/LayerNorm/batchnorm/add/y", "op": "Const", "attr": {"value": {"tensor": {"dtype": "DT_FLOAT", "tensorShape": {}}}, "dtype": {"type": "DT_FLOAT"}}}, {"name": "StatefulPartitionedCall/tf_esm_model/esm/encoder/layer_._3/attention/LayerNorm/batchnorm/mul/ReadVariableOp", "op": "Const", "attr": {"value": {"tensor": {"dtype": "DT_FLOAT", "tensorShape": {"dim": [{"size": "320"}]}}}, "dtype": {"type": "DT_FLOAT"}}}, {"name": "StatefulPartitionedCall/tf_esm_model/esm/encoder/layer_._3/attention/self/value/Tensordot/free", "op": "Const", "attr": {"value": {"tensor": {"dtype": "DT_INT32", "tensorShape": {"dim": [{"size": "2"}]}}}, "dtype": {"type": "DT_INT32"}}}, {"name": "StatefulPartitionedCall/tf_esm_model/esm/encoder/layer_._3/attention/self/value/Tensordot/GatherV2/axis", "op": "Const", "attr": {"dtype": {"type": "DT_INT32"}, "value": {"tensor": {"dtype": "DT_INT32", "tensorShape": {}}}}}, {"name": "StatefulPartitionedCall/tf_esm_model/esm/encoder/layer_._3/attention/self/value/Tensordot/Const_2", "op": "Const", "attr": {"dtype": {"type": "DT_INT32"}, "value": {"tensor": {"dtype": "DT_INT32", "tensorShape": {"dim": [{"size": "1"}]}}}}}, {"name": "StatefulPartitionedCall/tf_esm_model/esm/encoder/layer_._3/attention/self/value/Tensordot/concat_1/axis", "op": "Const", "attr": {"value": {"tensor": {"dtype": "DT_INT32", "tensorShape": {}}}, "dtype": {"type": "DT_INT32"}}}, {"name": "StatefulPartitionedCall/tf_esm_model/esm/encoder/layer_._3/attention/self/value/BiasAdd/ReadVariableOp", "op": "Const", "attr": {"dtype": {"type": "DT_FLOAT"}, "value": {"tensor": {"dtype": "DT_FLOAT", "tensorShape": {"dim": [{"size": "320"}]}}}}}, {"name": "StatefulPartitionedCall/tf_esm_model/esm/encoder/layer_._3/attention/self/strided_slice_3/stack", "op": "Const", "attr": {"dtype": {"type": "DT_INT32"}, "value": {"tensor": {"dtype": "DT_INT32", "tensorShape": {"dim": [{"size": "1"}]}}}}}, {"name": "StatefulPartitionedCall/tf_esm_model/esm/encoder/layer_._3/attention/self/strided_slice_3/stack_1", "op": "Const", "attr": {"value": {"tensor": {"dtype": "DT_INT32", "tensorShape": {"dim": [{"size": "1"}]}}}, "dtype": {"type": "DT_INT32"}}}, {"name": "StatefulPartitionedCall/tf_esm_model/esm/encoder/layer_._3/attention/self/strided_slice_3/stack_2", "op": "Const", "attr": {"dtype": {"type": "DT_INT32"}, "value": {"tensor": {"dtype": "DT_INT32", "tensorShape": {"dim": [{"size": "1"}]}}}}}, {"name": "StatefulPartitionedCall/tf_esm_model/esm/encoder/layer_._3/attention/self/Reshape_1/shape/2", "op": "Const", "attr": {"value": {"tensor": {"dtype": "DT_INT32", "tensorShape": {}}}, "dtype": {"type": "DT_INT32"}}}, {"name": "StatefulPartitionedCall/tf_esm_model/esm/encoder/layer_._3/attention/self/Reshape_1/shape/3", "op": "Const", "attr": {"dtype": {"type": "DT_INT32"}, "value": {"tensor": {"dtype": "DT_INT32", "tensorShape": {}}}}}, {"name": "StatefulPartitionedCall/tf_esm_model/esm/encoder/layer_._3/attention/self/transpose_1/perm", "op": "Const", "attr": {"dtype": {"type": "DT_INT32"}, "value": {"tensor": {"dtype": "DT_INT32", "tensorShape": {"dim": [{"size": "4"}]}}}}}, {"name": "StatefulPartitionedCall/tf_esm_model/esm/encoder/layer_._3/attention/self/transpose_3/perm", "op": "Const", "attr": {"value": {"tensor": {"dtype": "DT_INT32", "tensorShape": {"dim": [{"size": "4"}]}}}, "dtype": {"type": "DT_INT32"}}}, {"name": "StatefulPartitionedCall/tf_esm_model/esm/encoder/layer_._3/attention/self/strided_slice_7/stack", "op": "Const", "attr": {"dtype": {"type": "DT_INT32"}, "value": {"tensor": {"dtype": "DT_INT32", "tensorShape": {"dim": [{"size": "1"}]}}}}}, {"name": "StatefulPartitionedCall/tf_esm_model/esm/encoder/layer_._3/attention/self/strided_slice_7/stack_1", "op": "Const", "attr": {"dtype": {"type": "DT_INT32"}, "value": {"tensor": {"dtype": "DT_INT32", "tensorShape": {"dim": [{"size": "1"}]}}}}}, {"name": "StatefulPartitionedCall/tf_esm_model/esm/encoder/layer_._3/attention/self/strided_slice_7/stack_2", "op": "Const", "attr": {"dtype": {"type": "DT_INT32"}, "value": {"tensor": {"dtype": "DT_INT32", "tensorShape": {"dim": [{"size": "1"}]}}}}}, {"name": "StatefulPartitionedCall/tf_esm_model/esm/encoder/layer_._3/attention/self/Reshape_3/shape/2", "op": "Const", "attr": {"dtype": {"type": "DT_INT32"}, "value": {"tensor": {"dtype": "DT_INT32", "tensorShape": {}}}}}, {"name": "StatefulPartitionedCall/tf_esm_model/esm/encoder/layer_._3/attention/output/dense/Tensordot/free", "op": "Const", "attr": {"value": {"tensor": {"dtype": "DT_INT32", "tensorShape": {"dim": [{"size": "2"}]}}}, "dtype": {"type": "DT_INT32"}}}, {"name": "StatefulPartitionedCall/tf_esm_model/esm/encoder/layer_._3/attention/output/dense/Tensordot/GatherV2/axis", "op": "Const", "attr": {"value": {"tensor": {"dtype": "DT_INT32", "tensorShape": {}}}, "dtype": {"type": "DT_INT32"}}}, {"name": "StatefulPartitionedCall/tf_esm_model/esm/encoder/layer_._3/attention/output/dense/Tensordot/Const_2", "op": "Const", "attr": {"dtype": {"type": "DT_INT32"}, "value": {"tensor": {"dtype": "DT_INT32", "tensorShape": {"dim": [{"size": "1"}]}}}}}, {"name": "StatefulPartitionedCall/tf_esm_model/esm/encoder/layer_._3/attention/output/dense/Tensordot/concat_1/axis", "op": "Const", "attr": {"value": {"tensor": {"dtype": "DT_INT32", "tensorShape": {}}}, "dtype": {"type": "DT_INT32"}}}, {"name": "StatefulPartitionedCall/tf_esm_model/esm/encoder/layer_._3/attention/output/dense/BiasAdd/ReadVariableOp", "op": "Const", "attr": {"dtype": {"type": "DT_FLOAT"}, "value": {"tensor": {"dtype": "DT_FLOAT", "tensorShape": {"dim": [{"size": "320"}]}}}}}, {"name": "StatefulPartitionedCall/tf_esm_model/esm/encoder/layer_._2/output/dense/Tensordot/Const", "op": "Const", "attr": {"dtype": {"type": "DT_INT32"}, "value": {"tensor": {"dtype": "DT_INT32", "tensorShape": {"dim": [{"size": "1"}]}}}}}, {"name": "StatefulPartitionedCall/tf_esm_model/esm/encoder/layer_._2/output/dense/Tensordot/axes", "op": "Const", "attr": {"value": {"tensor": {"dtype": "DT_INT32", "tensorShape": {"dim": [{"size": "1"}]}}}, "dtype": {"type": "DT_INT32"}}}, {"name": "StatefulPartitionedCall/tf_esm_model/esm/encoder/layer_._2/output/dense/Tensordot/GatherV2_1/axis", "op": "Const", "attr": {"value": {"tensor": {"dtype": "DT_INT32", "tensorShape": {}}}, "dtype": {"type": "DT_INT32"}}}, {"name": "StatefulPartitionedCall/tf_esm_model/esm/encoder/layer_._2/output/dense/Tensordot/Const_1", "op": "Const", "attr": {"dtype": {"type": "DT_INT32"}, "value": {"tensor": {"dtype": "DT_INT32", "tensorShape": {"dim": [{"size": "1"}]}}}}}, {"name": "StatefulPartitionedCall/tf_esm_model/esm/encoder/layer_._2/output/dense/Tensordot/ReadVariableOp", "op": "Const", "attr": {"value": {"tensor": {"dtype": "DT_FLOAT", "tensorShape": {"dim": [{"size": "1280"}, {"size": "320"}]}}}, "dtype": {"type": "DT_FLOAT"}}}, {"name": "StatefulPartitionedCall/tf_esm_model/esm/encoder/layer_._2/intermediate/Gelu/mul/x", "op": "Const", "attr": {"dtype": {"type": "DT_FLOAT"}, "value": {"tensor": {"dtype": "DT_FLOAT", "tensorShape": {}}}}}, {"name": "StatefulPartitionedCall/tf_esm_model/esm/encoder/layer_._2/intermediate/Gelu/add/x", "op": "Const", "attr": {"dtype": {"type": "DT_FLOAT"}, "value": {"tensor": {"dtype": "DT_FLOAT", "tensorShape": {}}}}}, {"name": "StatefulPartitionedCall/tf_esm_model/esm/encoder/layer_._2/intermediate/dense/Tensordot/Const", "op": "Const", "attr": {"dtype": {"type": "DT_INT32"}, "value": {"tensor": {"dtype": "DT_INT32", "tensorShape": {"dim": [{"size": "1"}]}}}}}, {"name": "StatefulPartitionedCall/tf_esm_model/esm/encoder/layer_._2/intermediate/dense/Tensordot/axes", "op": "Const", "attr": {"value": {"tensor": {"dtype": "DT_INT32", "tensorShape": {"dim": [{"size": "1"}]}}}, "dtype": {"type": "DT_INT32"}}}, {"name": "StatefulPartitionedCall/tf_esm_model/esm/encoder/layer_._2/intermediate/dense/Tensordot/GatherV2_1/axis", "op": "Const", "attr": {"value": {"tensor": {"dtype": "DT_INT32", "tensorShape": {}}}, "dtype": {"type": "DT_INT32"}}}, {"name": "StatefulPartitionedCall/tf_esm_model/esm/encoder/layer_._2/intermediate/dense/Tensordot/Const_1", "op": "Const", "attr": {"value": {"tensor": {"dtype": "DT_INT32", "tensorShape": {"dim": [{"size": "1"}]}}}, "dtype": {"type": "DT_INT32"}}}, {"name": "StatefulPartitionedCall/tf_esm_model/esm/encoder/layer_._2/intermediate/dense/Tensordot/ReadVariableOp", "op": "Const", "attr": {"value": {"tensor": {"dtype": "DT_FLOAT", "tensorShape": {"dim": [{"size": "320"}, {"size": "1280"}]}}}, "dtype": {"type": "DT_FLOAT"}}}, {"name": "StatefulPartitionedCall/tf_esm_model/esm/encoder/layer_._2/LayerNorm/batchnorm/ReadVariableOp", "op": "Const", "attr": {"dtype": {"type": "DT_FLOAT"}, "value": {"tensor": {"dtype": "DT_FLOAT", "tensorShape": {"dim": [{"size": "320"}]}}}}}, {"name": "StatefulPartitionedCall/tf_esm_model/esm/encoder/layer_._2/LayerNorm/moments/mean/reduction_indices", "op": "Const", "attr": {"value": {"tensor": {"dtype": "DT_INT32", "tensorShape": {"dim": [{"size": "1"}]}}}, "dtype": {"type": "DT_INT32"}}}, {"name": "StatefulPartitionedCall/tf_esm_model/esm/encoder/layer_._2/LayerNorm/moments/variance/reduction_indices", "op": "Const", "attr": {"value": {"tensor": {"dtype": "DT_INT32", "tensorShape": {"dim": [{"size": "1"}]}}}, "dtype": {"type": "DT_INT32"}}}, {"name": "StatefulPartitionedCall/tf_esm_model/esm/encoder/layer_._2/LayerNorm/batchnorm/add/y", "op": "Const", "attr": {"value": {"tensor": {"dtype": "DT_FLOAT", "tensorShape": {}}}, "dtype": {"type": "DT_FLOAT"}}}, {"name": "StatefulPartitionedCall/tf_esm_model/esm/encoder/layer_._2/LayerNorm/batchnorm/mul/ReadVariableOp", "op": "Const", "attr": {"dtype": {"type": "DT_FLOAT"}, "value": {"tensor": {"dtype": "DT_FLOAT", "tensorShape": {"dim": [{"size": "320"}]}}}}}, {"name": "StatefulPartitionedCall/tf_esm_model/esm/encoder/layer_._2/intermediate/dense/Tensordot/free", "op": "Const", "attr": {"value": {"tensor": {"dtype": "DT_INT32", "tensorShape": {"dim": [{"size": "2"}]}}}, "dtype": {"type": "DT_INT32"}}}, {"name": "StatefulPartitionedCall/tf_esm_model/esm/encoder/layer_._2/intermediate/dense/Tensordot/GatherV2/axis", "op": "Const", "attr": {"dtype": {"type": "DT_INT32"}, "value": {"tensor": {"dtype": "DT_INT32", "tensorShape": {}}}}}, {"name": "StatefulPartitionedCall/tf_esm_model/esm/encoder/layer_._2/intermediate/dense/Tensordot/Const_2", "op": "Const", "attr": {"value": {"tensor": {"dtype": "DT_INT32", "tensorShape": {"dim": [{"size": "1"}]}}}, "dtype": {"type": "DT_INT32"}}}, {"name": "StatefulPartitionedCall/tf_esm_model/esm/encoder/layer_._2/intermediate/dense/Tensordot/concat_1/axis", "op": "Const", "attr": {"value": {"tensor": {"dtype": "DT_INT32", "tensorShape": {}}}, "dtype": {"type": "DT_INT32"}}}, {"name": "StatefulPartitionedCall/tf_esm_model/esm/encoder/layer_._2/intermediate/dense/BiasAdd/ReadVariableOp", "op": "Const", "attr": {"dtype": {"type": "DT_FLOAT"}, "value": {"tensor": {"dtype": "DT_FLOAT", "tensorShape": {"dim": [{"size": "1280"}]}}}}}, {"name": "ConstantFolding/StatefulPartitionedCall/tf_esm_model/esm/encoder/layer_._2/intermediate/Gelu/truediv_recip", "op": "Const", "attr": {"value": {"tensor": {"dtype": "DT_FLOAT", "tensorShape": {}}}, "dtype": {"type": "DT_FLOAT"}}}, {"name": "StatefulPartitionedCall/tf_esm_model/esm/encoder/layer_._2/output/dense/Tensordot/free", "op": "Const", "attr": {"dtype": {"type": "DT_INT32"}, "value": {"tensor": {"dtype": "DT_INT32", "tensorShape": {"dim": [{"size": "2"}]}}}}}, {"name": "StatefulPartitionedCall/tf_esm_model/esm/encoder/layer_._2/output/dense/Tensordot/GatherV2/axis", "op": "Const", "attr": {"dtype": {"type": "DT_INT32"}, "value": {"tensor": {"dtype": "DT_INT32", "tensorShape": {}}}}}, {"name": "StatefulPartitionedCall/tf_esm_model/esm/encoder/layer_._2/output/dense/Tensordot/Const_2", "op": "Const", "attr": {"dtype": {"type": "DT_INT32"}, "value": {"tensor": {"dtype": "DT_INT32", "tensorShape": {"dim": [{"size": "1"}]}}}}}, {"name": "StatefulPartitionedCall/tf_esm_model/esm/encoder/layer_._2/output/dense/Tensordot/concat_1/axis", "op": "Const", "attr": {"value": {"tensor": {"dtype": "DT_INT32", "tensorShape": {}}}, "dtype": {"type": "DT_INT32"}}}, {"name": "StatefulPartitionedCall/tf_esm_model/esm/encoder/layer_._2/output/dense/BiasAdd/ReadVariableOp", "op": "Const", "attr": {"value": {"tensor": {"dtype": "DT_FLOAT", "tensorShape": {"dim": [{"size": "320"}]}}}, "dtype": {"type": "DT_FLOAT"}}}, {"name": "StatefulPartitionedCall/tf_esm_model/esm/encoder/layer_._2/attention/output/dense/Tensordot/Const", "op": "Const", "attr": {"value": {"tensor": {"dtype": "DT_INT32", "tensorShape": {"dim": [{"size": "1"}]}}}, "dtype": {"type": "DT_INT32"}}}, {"name": "StatefulPartitionedCall/tf_esm_model/esm/encoder/layer_._2/attention/output/dense/Tensordot/axes", "op": "Const", "attr": {"dtype": {"type": "DT_INT32"}, "value": {"tensor": {"dtype": "DT_INT32", "tensorShape": {"dim": [{"size": "1"}]}}}}}, {"name": "StatefulPartitionedCall/tf_esm_model/esm/encoder/layer_._2/attention/output/dense/Tensordot/GatherV2_1/axis", "op": "Const", "attr": {"dtype": {"type": "DT_INT32"}, "value": {"tensor": {"dtype": "DT_INT32", "tensorShape": {}}}}}, {"name": "StatefulPartitionedCall/tf_esm_model/esm/encoder/layer_._2/attention/output/dense/Tensordot/Const_1", "op": "Const", "attr": {"dtype": {"type": "DT_INT32"}, "value": {"tensor": {"dtype": "DT_INT32", "tensorShape": {"dim": [{"size": "1"}]}}}}}, {"name": "StatefulPartitionedCall/tf_esm_model/esm/encoder/layer_._2/attention/output/dense/Tensordot/ReadVariableOp", "op": "Const", "attr": {"value": {"tensor": {"dtype": "DT_FLOAT", "tensorShape": {"dim": [{"size": "320"}, {"size": "320"}]}}}, "dtype": {"type": "DT_FLOAT"}}}, {"name": "StatefulPartitionedCall/tf_esm_model/esm/encoder/layer_._2/attention/self/strided_slice_6/stack", "op": "Const", "attr": {"value": {"tensor": {"dtype": "DT_INT32", "tensorShape": {"dim": [{"size": "1"}]}}}, "dtype": {"type": "DT_INT32"}}}, {"name": "StatefulPartitionedCall/tf_esm_model/esm/encoder/layer_._2/attention/self/strided_slice_6/stack_1", "op": "Const", "attr": {"value": {"tensor": {"dtype": "DT_INT32", "tensorShape": {"dim": [{"size": "1"}]}}}, "dtype": {"type": "DT_INT32"}}}, {"name": "StatefulPartitionedCall/tf_esm_model/esm/encoder/layer_._2/attention/self/strided_slice_6/stack_2", "op": "Const", "attr": {"dtype": {"type": "DT_INT32"}, "value": {"tensor": {"dtype": "DT_INT32", "tensorShape": {"dim": [{"size": "1"}]}}}}}, {"name": "StatefulPartitionedCall/tf_esm_model/esm/encoder/layer_._2/attention/self/rotary_embeddings/strided_slice_3/stack", "op": "Const", "attr": {"dtype": {"type": "DT_INT32"}, "value": {"tensor": {"dtype": "DT_INT32", "tensorShape": {"dim": [{"size": "4"}]}}}}}, {"name": "StatefulPartitionedCall/tf_esm_model/esm/encoder/layer_._2/attention/self/rotary_embeddings/strided_slice_3/stack_1/0", "op": "Const", "attr": {"value": {"tensor": {"dtype": "DT_INT32", "tensorShape": {}}}, "dtype": {"type": "DT_INT32"}}}, {"name": "StatefulPartitionedCall/tf_esm_model/esm/encoder/layer_._2/attention/self/rotary_embeddings/strided_slice_3/stack_1/1", "op": "Const", "attr": {"dtype": {"type": "DT_INT32"}, "value": {"tensor": {"dtype": "DT_INT32", "tensorShape": {}}}}}, {"name": "StatefulPartitionedCall/tf_esm_model/esm/encoder/layer_._2/attention/self/rotary_embeddings/strided_slice_2/stack", "op": "Const", "attr": {"dtype": {"type": "DT_INT32"}, "value": {"tensor": {"dtype": "DT_INT32", "tensorShape": {"dim": [{"size": "1"}]}}}}}, {"name": "StatefulPartitionedCall/tf_esm_model/esm/encoder/layer_._2/attention/self/rotary_embeddings/strided_slice_2/stack_1", "op": "Const", "attr": {"dtype": {"type": "DT_INT32"}, "value": {"tensor": {"dtype": "DT_INT32", "tensorShape": {"dim": [{"size": "1"}]}}}}}, {"name": "StatefulPartitionedCall/tf_esm_model/esm/encoder/layer_._2/attention/self/rotary_embeddings/strided_slice_2/stack_2", "op": "Const", "attr": {"dtype": {"type": "DT_INT32"}, "value": {"tensor": {"dtype": "DT_INT32", "tensorShape": {"dim": [{"size": "1"}]}}}}}, {"name": "StatefulPartitionedCall/tf_esm_model/esm/encoder/layer_._2/attention/self/rotary_embeddings/strided_slice_3/stack_1/3", "op": "Const", "attr": {"value": {"tensor": {"dtype": "DT_INT32", "tensorShape": {}}}, "dtype": {"type": "DT_INT32"}}}, {"name": "StatefulPartitionedCall/tf_esm_model/esm/encoder/layer_._2/attention/self/rotary_embeddings/strided_slice_3/stack_2", "op": "Const", "attr": {"value": {"tensor": {"dtype": "DT_INT32", "tensorShape": {"dim": [{"size": "4"}]}}}, "dtype": {"type": "DT_INT32"}}}, {"name": "StatefulPartitionedCall/tf_esm_model/esm/encoder/layer_._2/attention/self/rotary_embeddings/split/split_dim", "op": "Const", "attr": {"value": {"tensor": {"dtype": "DT_INT32", "tensorShape": {}}}, "dtype": {"type": "DT_INT32"}}}, {"name": "StatefulPartitionedCall/tf_esm_model/esm/encoder/layer_._2/attention/self/rotary_embeddings/concat_1/axis", "op": "Const", "attr": {"value": {"tensor": {"dtype": "DT_INT32", "tensorShape": {}}}, "dtype": {"type": "DT_INT32"}}}, {"name": "StatefulPartitionedCall/tf_esm_model/esm/encoder/layer_._2/attention/self/rotary_embeddings/strided_slice_5/stack", "op": "Const", "attr": {"dtype": {"type": "DT_INT32"}, "value": {"tensor": {"dtype": "DT_INT32", "tensorShape": {"dim": [{"size": "4"}]}}}}}, {"name": "StatefulPartitionedCall/tf_esm_model/esm/encoder/layer_._2/attention/self/rotary_embeddings/strided_slice_5/stack_1/0", "op": "Const", "attr": {"value": {"tensor": {"dtype": "DT_INT32", "tensorShape": {}}}, "dtype": {"type": "DT_INT32"}}}, {"name": "StatefulPartitionedCall/tf_esm_model/esm/encoder/layer_._2/attention/self/rotary_embeddings/strided_slice_5/stack_1/1", "op": "Const", "attr": {"value": {"tensor": {"dtype": "DT_INT32", "tensorShape": {}}}, "dtype": {"type": "DT_INT32"}}}, {"name": "StatefulPartitionedCall/tf_esm_model/esm/encoder/layer_._2/attention/self/strided_slice_4/stack", "op": "Const", "attr": {"dtype": {"type": "DT_INT32"}, "value": {"tensor": {"dtype": "DT_INT32", "tensorShape": {"dim": [{"size": "1"}]}}}}}, {"name": "StatefulPartitionedCall/tf_esm_model/esm/encoder/layer_._2/attention/self/strided_slice_4/stack_1", "op": "Const", "attr": {"dtype": {"type": "DT_INT32"}, "value": {"tensor": {"dtype": "DT_INT32", "tensorShape": {"dim": [{"size": "1"}]}}}}}, {"name": "StatefulPartitionedCall/tf_esm_model/esm/encoder/layer_._2/attention/self/strided_slice_4/stack_2", "op": "Const", "attr": {"value": {"tensor": {"dtype": "DT_INT32", "tensorShape": {"dim": [{"size": "1"}]}}}, "dtype": {"type": "DT_INT32"}}}, {"name": "StatefulPartitionedCall/tf_esm_model/esm/encoder/layer_._2/attention/self/query/Tensordot/Const", "op": "Const", "attr": {"value": {"tensor": {"dtype": "DT_INT32", "tensorShape": {"dim": [{"size": "1"}]}}}, "dtype": {"type": "DT_INT32"}}}, {"name": "StatefulPartitionedCall/tf_esm_model/esm/encoder/layer_._2/attention/self/query/Tensordot/axes", "op": "Const", "attr": {"dtype": {"type": "DT_INT32"}, "value": {"tensor": {"dtype": "DT_INT32", "tensorShape": {"dim": [{"size": "1"}]}}}}}, {"name": "StatefulPartitionedCall/tf_esm_model/esm/encoder/layer_._2/attention/self/query/Tensordot/GatherV2_1/axis", "op": "Const", "attr": {"dtype": {"type": "DT_INT32"}, "value": {"tensor": {"dtype": "DT_INT32", "tensorShape": {}}}}}, {"name": "StatefulPartitionedCall/tf_esm_model/esm/encoder/layer_._2/attention/self/query/Tensordot/Const_1", "op": "Const", "attr": {"value": {"tensor": {"dtype": "DT_INT32", "tensorShape": {"dim": [{"size": "1"}]}}}, "dtype": {"type": "DT_INT32"}}}, {"name": "StatefulPartitionedCall/tf_esm_model/esm/encoder/layer_._2/attention/self/query/Tensordot/ReadVariableOp", "op": "Const", "attr": {"value": {"tensor": {"dtype": "DT_FLOAT", "tensorShape": {"dim": [{"size": "320"}, {"size": "320"}]}}}, "dtype": {"type": "DT_FLOAT"}}}, {"name": "StatefulPartitionedCall/tf_esm_model/esm/encoder/layer_._2/attention/self/query/Tensordot/free", "op": "Const", "attr": {"value": {"tensor": {"dtype": "DT_INT32", "tensorShape": {"dim": [{"size": "2"}]}}}, "dtype": {"type": "DT_INT32"}}}, {"name": "StatefulPartitionedCall/tf_esm_model/esm/encoder/layer_._2/attention/self/query/Tensordot/GatherV2/axis", "op": "Const", "attr": {"value": {"tensor": {"dtype": "DT_INT32", "tensorShape": {}}}, "dtype": {"type": "DT_INT32"}}}, {"name": "StatefulPartitionedCall/tf_esm_model/esm/encoder/layer_._2/attention/self/query/Tensordot/Const_2", "op": "Const", "attr": {"dtype": {"type": "DT_INT32"}, "value": {"tensor": {"dtype": "DT_INT32", "tensorShape": {"dim": [{"size": "1"}]}}}}}, {"name": "StatefulPartitionedCall/tf_esm_model/esm/encoder/layer_._2/attention/self/query/Tensordot/concat_1/axis", "op": "Const", "attr": {"value": {"tensor": {"dtype": "DT_INT32", "tensorShape": {}}}, "dtype": {"type": "DT_INT32"}}}, {"name": "StatefulPartitionedCall/tf_esm_model/esm/encoder/layer_._2/attention/self/query/BiasAdd/ReadVariableOp", "op": "Const", "attr": {"dtype": {"type": "DT_FLOAT"}, "value": {"tensor": {"dtype": "DT_FLOAT", "tensorShape": {"dim": [{"size": "320"}]}}}}}, {"name": "StatefulPartitionedCall/tf_esm_model/esm/encoder/layer_._2/attention/self/strided_slice_5/stack", "op": "Const", "attr": {"dtype": {"type": "DT_INT32"}, "value": {"tensor": {"dtype": "DT_INT32", "tensorShape": {"dim": [{"size": "1"}]}}}}}, {"name": "StatefulPartitionedCall/tf_esm_model/esm/encoder/layer_._2/attention/self/strided_slice_5/stack_1", "op": "Const", "attr": {"dtype": {"type": "DT_INT32"}, "value": {"tensor": {"dtype": "DT_INT32", "tensorShape": {"dim": [{"size": "1"}]}}}}}, {"name": "StatefulPartitionedCall/tf_esm_model/esm/encoder/layer_._2/attention/self/strided_slice_5/stack_2", "op": "Const", "attr": {"value": {"tensor": {"dtype": "DT_INT32", "tensorShape": {"dim": [{"size": "1"}]}}}, "dtype": {"type": "DT_INT32"}}}, {"name": "StatefulPartitionedCall/tf_esm_model/esm/encoder/layer_._2/attention/self/Reshape_2/shape/2", "op": "Const", "attr": {"value": {"tensor": {"dtype": "DT_INT32", "tensorShape": {}}}, "dtype": {"type": "DT_INT32"}}}, {"name": "StatefulPartitionedCall/tf_esm_model/esm/encoder/layer_._2/attention/self/Reshape_2/shape/3", "op": "Const", "attr": {"dtype": {"type": "DT_INT32"}, "value": {"tensor": {"dtype": "DT_INT32", "tensorShape": {}}}}}, {"name": "StatefulPartitionedCall/tf_esm_model/esm/encoder/layer_._2/attention/self/transpose_2/perm", "op": "Const", "attr": {"value": {"tensor": {"dtype": "DT_INT32", "tensorShape": {"dim": [{"size": "4"}]}}}, "dtype": {"type": "DT_INT32"}}}, {"name": "StatefulPartitionedCall/tf_esm_model/esm/encoder/layer_._2/attention/self/mul/y", "op": "Const", "attr": {"value": {"tensor": {"dtype": "DT_FLOAT", "tensorShape": {}}}, "dtype": {"type": "DT_FLOAT"}}}, {"name": "StatefulPartitionedCall/tf_esm_model/esm/encoder/layer_._2/attention/self/rotary_embeddings/strided_slice_4/stack", "op": "Const", "attr": {"value": {"tensor": {"dtype": "DT_INT32", "tensorShape": {"dim": [{"size": "1"}]}}}, "dtype": {"type": "DT_INT32"}}}, {"name": "StatefulPartitionedCall/tf_esm_model/esm/encoder/layer_._2/attention/self/rotary_embeddings/strided_slice_4/stack_1", "op": "Const", "attr": {"dtype": {"type": "DT_INT32"}, "value": {"tensor": {"dtype": "DT_INT32", "tensorShape": {"dim": [{"size": "1"}]}}}}}, {"name": "StatefulPartitionedCall/tf_esm_model/esm/encoder/layer_._2/attention/self/rotary_embeddings/strided_slice_4/stack_2", "op": "Const", "attr": {"value": {"tensor": {"dtype": "DT_INT32", "tensorShape": {"dim": [{"size": "1"}]}}}, "dtype": {"type": "DT_INT32"}}}, {"name": "StatefulPartitionedCall/tf_esm_model/esm/encoder/layer_._2/attention/self/rotary_embeddings/strided_slice_5/stack_1/3", "op": "Const", "attr": {"value": {"tensor": {"dtype": "DT_INT32", "tensorShape": {}}}, "dtype": {"type": "DT_INT32"}}}, {"name": "StatefulPartitionedCall/tf_esm_model/esm/encoder/layer_._2/attention/self/rotary_embeddings/strided_slice_5/stack_2", "op": "Const", "attr": {"value": {"tensor": {"dtype": "DT_INT32", "tensorShape": {"dim": [{"size": "4"}]}}}, "dtype": {"type": "DT_INT32"}}}, {"name": "StatefulPartitionedCall/tf_esm_model/esm/encoder/layer_._2/attention/self/rotary_embeddings/strided_slice_7/stack", "op": "Const", "attr": {"dtype": {"type": "DT_INT32"}, "value": {"tensor": {"dtype": "DT_INT32", "tensorShape": {"dim": [{"size": "4"}]}}}}}, {"name": "StatefulPartitionedCall/tf_esm_model/esm/encoder/layer_._2/attention/self/rotary_embeddings/strided_slice_7/stack_1/0", "op": "Const", "attr": {"dtype": {"type": "DT_INT32"}, "value": {"tensor": {"dtype": "DT_INT32", "tensorShape": {}}}}}, {"name": "StatefulPartitionedCall/tf_esm_model/esm/encoder/layer_._2/attention/self/rotary_embeddings/strided_slice_7/stack_1/1", "op": "Const", "attr": {"dtype": {"type": "DT_INT32"}, "value": {"tensor": {"dtype": "DT_INT32", "tensorShape": {}}}}}, {"name": "StatefulPartitionedCall/tf_esm_model/esm/encoder/layer_._2/attention/self/rotary_embeddings/strided_slice_6/stack", "op": "Const", "attr": {"dtype": {"type": "DT_INT32"}, "value": {"tensor": {"dtype": "DT_INT32", "tensorShape": {"dim": [{"size": "1"}]}}}}}, {"name": "StatefulPartitionedCall/tf_esm_model/esm/encoder/layer_._2/attention/self/rotary_embeddings/strided_slice_6/stack_1", "op": "Const", "attr": {"dtype": {"type": "DT_INT32"}, "value": {"tensor": {"dtype": "DT_INT32", "tensorShape": {"dim": [{"size": "1"}]}}}}}, {"name": "StatefulPartitionedCall/tf_esm_model/esm/encoder/layer_._2/attention/self/rotary_embeddings/strided_slice_6/stack_2", "op": "Const", "attr": {"value": {"tensor": {"dtype": "DT_INT32", "tensorShape": {"dim": [{"size": "1"}]}}}, "dtype": {"type": "DT_INT32"}}}, {"name": "StatefulPartitionedCall/tf_esm_model/esm/encoder/layer_._2/attention/self/rotary_embeddings/strided_slice_7/stack_1/3", "op": "Const", "attr": {"value": {"tensor": {"dtype": "DT_INT32", "tensorShape": {}}}, "dtype": {"type": "DT_INT32"}}}, {"name": "StatefulPartitionedCall/tf_esm_model/esm/encoder/layer_._2/attention/self/rotary_embeddings/strided_slice_7/stack_2", "op": "Const", "attr": {"dtype": {"type": "DT_INT32"}, "value": {"tensor": {"dtype": "DT_INT32", "tensorShape": {"dim": [{"size": "4"}]}}}}}, {"name": "StatefulPartitionedCall/tf_esm_model/esm/encoder/layer_._2/attention/self/rotary_embeddings/split_1/split_dim", "op": "Const", "attr": {"value": {"tensor": {"dtype": "DT_INT32", "tensorShape": {}}}, "dtype": {"type": "DT_INT32"}}}, {"name": "StatefulPartitionedCall/tf_esm_model/esm/encoder/layer_._2/attention/self/rotary_embeddings/concat_2/axis", "op": "Const", "attr": {"value": {"tensor": {"dtype": "DT_INT32", "tensorShape": {}}}, "dtype": {"type": "DT_INT32"}}}, {"name": "StatefulPartitionedCall/tf_esm_model/esm/encoder/layer_._2/attention/self/rotary_embeddings/range/start", "op": "Const", "attr": {"dtype": {"type": "DT_FLOAT"}, "value": {"tensor": {"dtype": "DT_FLOAT", "tensorShape": {}}}}}, {"name": "StatefulPartitionedCall/tf_esm_model/esm/encoder/layer_._2/attention/self/rotary_embeddings/strided_slice/stack", "op": "Const", "attr": {"dtype": {"type": "DT_INT32"}, "value": {"tensor": {"dtype": "DT_INT32", "tensorShape": {"dim": [{"size": "1"}]}}}}}, {"name": "StatefulPartitionedCall/tf_esm_model/esm/encoder/layer_._2/attention/self/rotary_embeddings/strided_slice/stack_1", "op": "Const", "attr": {"dtype": {"type": "DT_INT32"}, "value": {"tensor": {"dtype": "DT_INT32", "tensorShape": {"dim": [{"size": "1"}]}}}}}, {"name": "StatefulPartitionedCall/tf_esm_model/esm/encoder/layer_._2/attention/self/rotary_embeddings/strided_slice/stack_2", "op": "Const", "attr": {"value": {"tensor": {"dtype": "DT_INT32", "tensorShape": {"dim": [{"size": "1"}]}}}, "dtype": {"type": "DT_INT32"}}}, {"name": "StatefulPartitionedCall/tf_esm_model/esm/encoder/layer_._2/attention/self/rotary_embeddings/range/delta", "op": "Const", "attr": {"value": {"tensor": {"dtype": "DT_FLOAT", "tensorShape": {}}}, "dtype": {"type": "DT_FLOAT"}}}, {"name": "StatefulPartitionedCall/tf_esm_model/esm/encoder/layer_._2/attention/self/rotary_embeddings/einsum/Einsum/ReadVariableOp", "op": "Const", "attr": {"value": {"tensor": {"dtype": "DT_FLOAT", "tensorShape": {"dim": [{"size": "8"}]}}}, "dtype": {"type": "DT_FLOAT"}}}, {"name": "StatefulPartitionedCall/tf_esm_model/esm/encoder/layer_._2/attention/self/rotary_embeddings/concat/axis", "op": "Const", "attr": {"dtype": {"type": "DT_INT32"}, "value": {"tensor": {"dtype": "DT_INT32", "tensorShape": {}}}}}, {"name": "StatefulPartitionedCall/tf_esm_model/esm/encoder/layer_._2/attention/self/rotary_embeddings/strided_slice_1/stack", "op": "Const", "attr": {"dtype": {"type": "DT_INT32"}, "value": {"tensor": {"dtype": "DT_INT32", "tensorShape": {"dim": [{"size": "4"}]}}}}}, {"name": "StatefulPartitionedCall/tf_esm_model/esm/encoder/layer_._2/attention/self/rotary_embeddings/strided_slice_1/stack_1", "op": "Const", "attr": {"dtype": {"type": "DT_INT32"}, "value": {"tensor": {"dtype": "DT_INT32", "tensorShape": {"dim": [{"size": "4"}]}}}}}, {"name": "StatefulPartitionedCall/tf_esm_model/esm/encoder/layer_._2/attention/self/rotary_embeddings/strided_slice_1/stack_2", "op": "Const", "attr": {"dtype": {"type": "DT_INT32"}, "value": {"tensor": {"dtype": "DT_INT32", "tensorShape": {"dim": [{"size": "4"}]}}}}}, {"name": "StatefulPartitionedCall/tf_esm_model/esm/encoder/layer_._2/attention/self/rotary_embeddings/strided_slice_9/stack", "op": "Const", "attr": {"value": {"tensor": {"dtype": "DT_INT32", "tensorShape": {"dim": [{"size": "4"}]}}}, "dtype": {"type": "DT_INT32"}}}, {"name": "StatefulPartitionedCall/tf_esm_model/esm/encoder/layer_._2/attention/self/rotary_embeddings/strided_slice_9/stack_1/0", "op": "Const", "attr": {"value": {"tensor": {"dtype": "DT_INT32", "tensorShape": {}}}, "dtype": {"type": "DT_INT32"}}}, {"name": "StatefulPartitionedCall/tf_esm_model/esm/encoder/layer_._2/attention/self/rotary_embeddings/strided_slice_9/stack_1/1", "op": "Const", "attr": {"dtype": {"type": "DT_INT32"}, "value": {"tensor": {"dtype": "DT_INT32", "tensorShape": {}}}}}, {"name": "StatefulPartitionedCall/tf_esm_model/esm/encoder/layer_._2/attention/self/strided_slice/stack", "op": "Const", "attr": {"dtype": {"type": "DT_INT32"}, "value": {"tensor": {"dtype": "DT_INT32", "tensorShape": {"dim": [{"size": "1"}]}}}}}, {"name": "StatefulPartitionedCall/tf_esm_model/esm/encoder/layer_._2/attention/self/strided_slice/stack_1", "op": "Const", "attr": {"dtype": {"type": "DT_INT32"}, "value": {"tensor": {"dtype": "DT_INT32", "tensorShape": {"dim": [{"size": "1"}]}}}}}, {"name": "StatefulPartitionedCall/tf_esm_model/esm/encoder/layer_._2/attention/self/strided_slice/stack_2", "op": "Const", "attr": {"dtype": {"type": "DT_INT32"}, "value": {"tensor": {"dtype": "DT_INT32", "tensorShape": {"dim": [{"size": "1"}]}}}}}, {"name": "StatefulPartitionedCall/tf_esm_model/esm/encoder/layer_._2/attention/self/key/Tensordot/Const", "op": "Const", "attr": {"dtype": {"type": "DT_INT32"}, "value": {"tensor": {"dtype": "DT_INT32", "tensorShape": {"dim": [{"size": "1"}]}}}}}, {"name": "StatefulPartitionedCall/tf_esm_model/esm/encoder/layer_._2/attention/self/key/Tensordot/axes", "op": "Const", "attr": {"dtype": {"type": "DT_INT32"}, "value": {"tensor": {"dtype": "DT_INT32", "tensorShape": {"dim": [{"size": "1"}]}}}}}, {"name": "StatefulPartitionedCall/tf_esm_model/esm/encoder/layer_._2/attention/self/key/Tensordot/GatherV2_1/axis", "op": "Const", "attr": {"dtype": {"type": "DT_INT32"}, "value": {"tensor": {"dtype": "DT_INT32", "tensorShape": {}}}}}, {"name": "StatefulPartitionedCall/tf_esm_model/esm/encoder/layer_._2/attention/self/key/Tensordot/Const_1", "op": "Const", "attr": {"value": {"tensor": {"dtype": "DT_INT32", "tensorShape": {"dim": [{"size": "1"}]}}}, "dtype": {"type": "DT_INT32"}}}, {"name": "StatefulPartitionedCall/tf_esm_model/esm/encoder/layer_._2/attention/self/key/Tensordot/ReadVariableOp", "op": "Const", "attr": {"value": {"tensor": {"dtype": "DT_FLOAT", "tensorShape": {"dim": [{"size": "320"}, {"size": "320"}]}}}, "dtype": {"type": "DT_FLOAT"}}}, {"name": "StatefulPartitionedCall/tf_esm_model/esm/encoder/layer_._2/attention/self/key/Tensordot/free", "op": "Const", "attr": {"value": {"tensor": {"dtype": "DT_INT32", "tensorShape": {"dim": [{"size": "2"}]}}}, "dtype": {"type": "DT_INT32"}}}, {"name": "StatefulPartitionedCall/tf_esm_model/esm/encoder/layer_._2/attention/self/key/Tensordot/GatherV2/axis", "op": "Const", "attr": {"dtype": {"type": "DT_INT32"}, "value": {"tensor": {"dtype": "DT_INT32", "tensorShape": {}}}}}, {"name": "StatefulPartitionedCall/tf_esm_model/esm/encoder/layer_._2/attention/self/key/Tensordot/Const_2", "op": "Const", "attr": {"value": {"tensor": {"dtype": "DT_INT32", "tensorShape": {"dim": [{"size": "1"}]}}}, "dtype": {"type": "DT_INT32"}}}, {"name": "StatefulPartitionedCall/tf_esm_model/esm/encoder/layer_._2/attention/self/key/Tensordot/concat_1/axis", "op": "Const", "attr": {"value": {"tensor": {"dtype": "DT_INT32", "tensorShape": {}}}, "dtype": {"type": "DT_INT32"}}}, {"name": "StatefulPartitionedCall/tf_esm_model/esm/encoder/layer_._2/attention/self/key/BiasAdd/ReadVariableOp", "op": "Const", "attr": {"value": {"tensor": {"dtype": "DT_FLOAT", "tensorShape": {"dim": [{"size": "320"}]}}}, "dtype": {"type": "DT_FLOAT"}}}, {"name": "StatefulPartitionedCall/tf_esm_model/esm/encoder/layer_._2/attention/self/strided_slice_1/stack", "op": "Const", "attr": {"value": {"tensor": {"dtype": "DT_INT32", "tensorShape": {"dim": [{"size": "1"}]}}}, "dtype": {"type": "DT_INT32"}}}, {"name": "StatefulPartitionedCall/tf_esm_model/esm/encoder/layer_._2/attention/self/strided_slice_1/stack_1", "op": "Const", "attr": {"value": {"tensor": {"dtype": "DT_INT32", "tensorShape": {"dim": [{"size": "1"}]}}}, "dtype": {"type": "DT_INT32"}}}, {"name": "StatefulPartitionedCall/tf_esm_model/esm/encoder/layer_._2/attention/self/strided_slice_1/stack_2", "op": "Const", "attr": {"value": {"tensor": {"dtype": "DT_INT32", "tensorShape": {"dim": [{"size": "1"}]}}}, "dtype": {"type": "DT_INT32"}}}, {"name": "StatefulPartitionedCall/tf_esm_model/esm/encoder/layer_._2/attention/self/Reshape/shape/2", "op": "Const", "attr": {"value": {"tensor": {"dtype": "DT_INT32", "tensorShape": {}}}, "dtype": {"type": "DT_INT32"}}}, {"name": "StatefulPartitionedCall/tf_esm_model/esm/encoder/layer_._2/attention/self/Reshape/shape/3", "op": "Const", "attr": {"value": {"tensor": {"dtype": "DT_INT32", "tensorShape": {}}}, "dtype": {"type": "DT_INT32"}}}, {"name": "StatefulPartitionedCall/tf_esm_model/esm/encoder/layer_._2/attention/self/transpose/perm", "op": "Const", "attr": {"dtype": {"type": "DT_INT32"}, "value": {"tensor": {"dtype": "DT_INT32", "tensorShape": {"dim": [{"size": "4"}]}}}}}, {"name": "StatefulPartitionedCall/tf_esm_model/esm/encoder/layer_._2/attention/self/rotary_embeddings/strided_slice_8/stack", "op": "Const", "attr": {"dtype": {"type": "DT_INT32"}, "value": {"tensor": {"dtype": "DT_INT32", "tensorShape": {"dim": [{"size": "1"}]}}}}}, {"name": "StatefulPartitionedCall/tf_esm_model/esm/encoder/layer_._2/attention/self/rotary_embeddings/strided_slice_8/stack_1", "op": "Const", "attr": {"dtype": {"type": "DT_INT32"}, "value": {"tensor": {"dtype": "DT_INT32", "tensorShape": {"dim": [{"size": "1"}]}}}}}, {"name": "StatefulPartitionedCall/tf_esm_model/esm/encoder/layer_._2/attention/self/rotary_embeddings/strided_slice_8/stack_2", "op": "Const", "attr": {"dtype": {"type": "DT_INT32"}, "value": {"tensor": {"dtype": "DT_INT32", "tensorShape": {"dim": [{"size": "1"}]}}}}}, {"name": "StatefulPartitionedCall/tf_esm_model/esm/encoder/layer_._2/attention/self/rotary_embeddings/strided_slice_9/stack_1/3", "op": "Const", "attr": {"dtype": {"type": "DT_INT32"}, "value": {"tensor": {"dtype": "DT_INT32", "tensorShape": {}}}}}, {"name": "StatefulPartitionedCall/tf_esm_model/esm/encoder/layer_._2/attention/self/rotary_embeddings/strided_slice_9/stack_2", "op": "Const", "attr": {"dtype": {"type": "DT_INT32"}, "value": {"tensor": {"dtype": "DT_INT32", "tensorShape": {"dim": [{"size": "4"}]}}}}}, {"name": "StatefulPartitionedCall/tf_esm_model/esm/encoder/layer_._2/attention/self/add_1/y", "op": "Const", "attr": {"value": {"tensor": {"dtype": "DT_FLOAT", "tensorShape": {}}}, "dtype": {"type": "DT_FLOAT"}}}, {"name": "StatefulPartitionedCall/tf_esm_model/esm/encoder/layer_._2/attention/self/strided_slice_2/stack", "op": "Const", "attr": {"value": {"tensor": {"dtype": "DT_INT32", "tensorShape": {"dim": [{"size": "1"}]}}}, "dtype": {"type": "DT_INT32"}}}, {"name": "StatefulPartitionedCall/tf_esm_model/esm/encoder/layer_._2/attention/self/strided_slice_2/stack_1", "op": "Const", "attr": {"dtype": {"type": "DT_INT32"}, "value": {"tensor": {"dtype": "DT_INT32", "tensorShape": {"dim": [{"size": "1"}]}}}}}, {"name": "StatefulPartitionedCall/tf_esm_model/esm/encoder/layer_._2/attention/self/strided_slice_2/stack_2", "op": "Const", "attr": {"value": {"tensor": {"dtype": "DT_INT32", "tensorShape": {"dim": [{"size": "1"}]}}}, "dtype": {"type": "DT_INT32"}}}, {"name": "StatefulPartitionedCall/tf_esm_model/esm/encoder/layer_._2/attention/self/value/Tensordot/Const", "op": "Const", "attr": {"dtype": {"type": "DT_INT32"}, "value": {"tensor": {"dtype": "DT_INT32", "tensorShape": {"dim": [{"size": "1"}]}}}}}, {"name": "StatefulPartitionedCall/tf_esm_model/esm/encoder/layer_._2/attention/self/value/Tensordot/axes", "op": "Const", "attr": {"dtype": {"type": "DT_INT32"}, "value": {"tensor": {"dtype": "DT_INT32", "tensorShape": {"dim": [{"size": "1"}]}}}}}, {"name": "StatefulPartitionedCall/tf_esm_model/esm/encoder/layer_._2/attention/self/value/Tensordot/GatherV2_1/axis", "op": "Const", "attr": {"dtype": {"type": "DT_INT32"}, "value": {"tensor": {"dtype": "DT_INT32", "tens…
efulPartitionedCall/tf_esm_model/esm/encoder/layer_._1/output/dense/Tensordot/Const", "shape": [1], "dtype": "int32"}, {"name": "StatefulPartitionedCall/tf_esm_model/esm/encoder/layer_._1/output/dense/Tensordot/axes", "shape": [1], "dtype": "int32"}, {"name": "StatefulPartitionedCall/tf_esm_model/esm/encoder/layer_._1/output/dense/Tensordot/GatherV2_1/axis", "shape": [], "dtype": "int32"}, {"name": "StatefulPartitionedCall/tf_esm_model/esm/encoder/layer_._1/output/dense/Tensordot/Const_1", "shape": [1], "dtype": "int32"}, {"name": "StatefulPartitionedCall/tf_esm_model/esm/encoder/layer_._1/output/dense/Tensordot/ReadVariableOp", "shape": [1280, 320], "dtype": "float32"}, {"name": "StatefulPartitionedCall/tf_esm_model/esm/encoder/layer_._1/intermediate/Gelu/mul/x", "shape": [], "dtype": "float32"}, {"name": "StatefulPartitionedCall/tf_esm_model/esm/encoder/layer_._1/intermediate/Gelu/add/x", "shape": [], "dtype": "float32"}, {"name": "StatefulPartitionedCall/tf_esm_model/esm/encoder/layer_._1/intermediate/dense/Tensordot/Const", "shape": [1], "dtype": "int32"}, {"name": "StatefulPartitionedCall/tf_esm_model/esm/encoder/layer_._1/intermediate/dense/Tensordot/axes", "shape": [1], "dtype": "int32"}, {"name": "StatefulPartitionedCall/tf_esm_model/esm/encoder/layer_._1/intermediate/dense/Tensordot/GatherV2_1/axis", "shape": [], "dtype": "int32"}, {"name": "StatefulPartitionedCall/tf_esm_model/esm/encoder/layer_._1/intermediate/dense/Tensordot/Const_1", "shape": [1], "dtype": "int32"}, {"name": "StatefulPartitionedCall/tf_esm_model/esm/encoder/layer_._1/intermediate/dense/Tensordot/ReadVariableOp", "shape": [320, 1280], "dtype": "float32"}, {"name": "StatefulPartitionedCall/tf_esm_model/esm/encoder/layer_._1/LayerNorm/batchnorm/ReadVariableOp", "shape": [320], "dtype": "float32"}, {"name": "StatefulPartitionedCall/tf_esm_model/esm/encoder/layer_._1/LayerNorm/moments/mean/reduction_indices", "shape": [1], "dtype": "int32"}, {"name": "StatefulPartitionedCall/tf_esm_model/esm/encoder/layer_._1/LayerNorm/moments/variance/reduction_indices", "shape": [1], "dtype": "int32"}, {"name": "StatefulPartitionedCall/tf_esm_model/esm/encoder/layer_._1/LayerNorm/batchnorm/add/y", "shape": [], "dtype": "float32"}, {"name": "StatefulPartitionedCall/tf_esm_model/esm/encoder/layer_._1/LayerNorm/batchnorm/mul/ReadVariableOp", "shape": [320], "dtype": "float32"}, {"name": "StatefulPartitionedCall/tf_esm_model/esm/encoder/layer_._1/intermediate/dense/Tensordot/free", "shape": [2], "dtype": "int32"}, {"name": "StatefulPartitionedCall/tf_esm_model/esm/encoder/layer_._1/intermediate/dense/Tensordot/GatherV2/axis", "shape": [], "dtype": "int32"}, {"name": "StatefulPartitionedCall/tf_esm_model/esm/encoder/layer_._1/intermediate/dense/Tensordot/Const_2", "shape": [1], "dtype": "int32"}, {"name": "StatefulPartitionedCall/tf_esm_model/esm/encoder/layer_._1/intermediate/dense/Tensordot/concat_1/axis", "shape": [], "dtype": "int32"}, {"name": "StatefulPartitionedCall/tf_esm_model/esm/encoder/layer_._1/intermediate/dense/BiasAdd/ReadVariableOp", "shape": [1280], "dtype": "float32"}, {"name": "ConstantFolding/StatefulPartitionedCall/tf_esm_model/esm/encoder/layer_._1/intermediate/Gelu/truediv_recip", "shape": [], "dtype": "float32"}, {"name": "StatefulPartitionedCall/tf_esm_model/esm/encoder/layer_._1/output/dense/Tensordot/free", "shape": [2], "dtype": "int32"}, {"name": "StatefulPartitionedCall/tf_esm_model/esm/encoder/layer_._1/output/dense/Tensordot/GatherV2/axis", "shape": [], "dtype": "int32"}, {"name": "StatefulPartitionedCall/tf_esm_model/esm/encoder/layer_._1/output/dense/Tensordot/Const_2", "shape": [1], "dtype": "int32"}, {"name": "StatefulPartitionedCall/tf_esm_model/esm/encoder/layer_._1/output/dense/Tensordot/concat_1/axis", "shape": [], "dtype": "int32"}, {"name": "StatefulPartitionedCall/tf_esm_model/esm/encoder/layer_._1/output/dense/BiasAdd/ReadVariableOp", "shape": [320], "dtype": "float32"}, {"name": "StatefulPartitionedCall/tf_esm_model/esm/encoder/layer_._1/attention/output/dense/Tensordot/Const", "shape": [1], "dtype": "int32"}, {"name": "StatefulPartitionedCall/tf_esm_model/esm/encoder/layer_._1/attention/output/dense/Tensordot/axes", "shape": [1], "dtype": "int32"}, {"name": "StatefulPartitionedCall/tf_esm_model/esm/encoder/layer_._1/attention/output/dense/Tensordot/GatherV2_1/axis", "shape": [], "dtype": "int32"}, {"name": "StatefulPartitionedCall/tf_esm_model/esm/encoder/layer_._1/attention/output/dense/Tensordot/Const_1", "shape": [1], "dtype": "int32"}, {"name": "StatefulPartitionedCall/tf_esm_model/esm/encoder/layer_._1/attention/output/dense/Tensordot/ReadVariableOp", "shape": [320, 320], "dtype": "float32"}, {"name": "StatefulPartitionedCall/tf_esm_model/esm/encoder/layer_._1/attention/self/strided_slice_6/stack", "shape": [1], "dtype": "int32"}, {"name": "StatefulPartitionedCall/tf_esm_model/esm/encoder/layer_._1/attention/self/strided_slice_6/stack_1", "shape": [1], "dtype": "int32"}, {"name": "StatefulPartitionedCall/tf_esm_model/esm/encoder/layer_._1/attention/self/strided_slice_6/stack_2", "shape": [1], "dtype": "int32"}, {"name": "StatefulPartitionedCall/tf_esm_model/esm/encoder/layer_._1/attention/self/rotary_embeddings/strided_slice_3/stack", "shape": [4], "dtype": "int32"}, {"name": "StatefulPartitionedCall/tf_esm_model/esm/encoder/layer_._1/attention/self/rotary_embeddings/strided_slice_3/stack_1/0", "shape": [], "dtype": "int32"}, {"name": "StatefulPartitionedCall/tf_esm_model/esm/encoder/layer_._1/attention/self/rotary_embeddings/strided_slice_3/stack_1/1", "shape": [], "dtype": "int32"}, {"name": "StatefulPartitionedCall/tf_esm_model/esm/encoder/layer_._1/attention/self/rotary_embeddings/strided_slice_2/stack", "shape": [1], "dtype": "int32"}, {"name": "StatefulPartitionedCall/tf_esm_model/esm/encoder/layer_._1/attention/self/rotary_embeddings/strided_slice_2/stack_1", "shape": [1], "dtype": "int32"}, {"name": "StatefulPartitionedCall/tf_esm_model/esm/encoder/layer_._1/attention/self/rotary_embeddings/strided_slice_2/stack_2", "shape": [1], "dtype": "int32"}, {"name": "StatefulPartitionedCall/tf_esm_model/esm/encoder/layer_._1/attention/self/rotary_embeddings/strided_slice_3/stack_1/3", "shape": [], "dtype": "int32"}, {"name": "StatefulPartitionedCall/tf_esm_model/esm/encoder/layer_._1/attention/self/rotary_embeddings/strided_slice_3/stack_2", "shape": [4], "dtype": "int32"}, {"name": "StatefulPartitionedCall/tf_esm_model/esm/encoder/layer_._1/attention/self/rotary_embeddings/split/split_dim", "shape": [], "dtype": "int32"}, {"name": "StatefulPartitionedCall/tf_esm_model/esm/encoder/layer_._1/attention/self/rotary_embeddings/concat_1/axis", "shape": [], "dtype": "int32"}, {"name": "StatefulPartitionedCall/tf_esm_model/esm/encoder/layer_._1/attention/self/rotary_embeddings/strided_slice_5/stack", "shape": [4], "dtype": "int32"}, {"name": "StatefulPartitionedCall/tf_esm_model/esm/encoder/layer_._1/attention/self/rotary_embeddings/strided_slice_5/stack_1/0", "shape": [], "dtype": "int32"}, {"name": "StatefulPartitionedCall/tf_esm_model/esm/encoder/layer_._1/attention/self/rotary_embeddings/strided_slice_5/stack_1/1", "shape": [], "dtype": "int32"}, {"name": "StatefulPartitionedCall/tf_esm_model/esm/encoder/layer_._1/attention/self/strided_slice_4/stack", "shape": [1], "dtype": "int32"}, {"name": "StatefulPartitionedCall/tf_esm_model/esm/encoder/layer_._1/attention/self/strided_slice_4/stack_1", "shape": [1], "dtype": "int32"}, {"name": "StatefulPartitionedCall/tf_esm_model/esm/encoder/layer_._1/attention/self/strided_slice_4/stack_2", "shape": [1], "dtype": "int32"}, {"name": "StatefulPartitionedCall/tf_esm_model/esm/encoder/layer_._1/attention/self/query/Tensordot/Const", "shape": [1], "dtype": "int32"}, {"name": "StatefulPartitionedCall/tf_esm_model/esm/encoder/layer_._1/attention/self/query/Tensordot/axes", "shape": [1], "dtype": "int32"}, {"name": "StatefulPartitionedCall/tf_esm_model/esm/encoder/layer_._1/attention/self/query/Tensordot/GatherV2_1/axis", "shape": [], "dtype": "int32"}, {"name": "StatefulPartitionedCall/tf_esm_model/esm/encoder/layer_._1/attention/self/query/Tensordot/Const_1", "shape": [1], "dtype": "int32"}, {"name": "StatefulPartitionedCall/tf_esm_model/esm/encoder/layer_._1/attention/self/query/Tensordot/ReadVariableOp", "shape": [320, 320], "dtype": "float32"}, {"name": "StatefulPartitionedCall/tf_esm_model/esm/encoder/layer_._1/attention/self/query/Tensordot/free", "shape": [2], "dtype": "int32"}, {"name": "StatefulPartitionedCall/tf_esm_model/esm/encoder/layer_._1/attention/self/query/Tensordot/GatherV2/axis", "shape": [], "dtype": "int32"}, {"name": "StatefulPartitionedCall/tf_esm_model/esm/encoder/layer_._1/attention/self/query/Tensordot/Const_2", "shape": [1], "dtype": "int32"}, {"name": "StatefulPartitionedCall/tf_esm_model/esm/encoder/layer_._1/attention/self/query/Tensordot/concat_1/axis", "shape": [], "dtype": "int32"}, {"name": "StatefulPartitionedCall/tf_esm_model/esm/encoder/layer_._1/attention/self/query/BiasAdd/ReadVariableOp", "shape": [320], "dtype": "float32"}, {"name": "StatefulPartitionedCall/tf_esm_model/esm/encoder/layer_._1/attention/self/strided_slice_5/stack", "shape": [1], "dtype": "int32"}, {"name": "StatefulPartitionedCall/tf_esm_model/esm/encoder/layer_._1/attention/self/strided_slice_5/stack_1", "shape": [1], "dtype": "int32"}, {"name": "StatefulPartitionedCall/tf_esm_model/esm/encoder/layer_._1/attention/self/strided_slice_5/stack_2", "shape": [1], "dtype": "int32"}, {"name": "StatefulPartitionedCall/tf_esm_model/esm/encoder/layer_._1/attention/self/Reshape_2/shape/2", "shape": [], "dtype": "int32"}, {"name": "StatefulPartitionedCall/tf_esm_model/esm/encoder/layer_._1/attention/self/Reshape_2/shape/3", "shape": [], "dtype": "int32"}, {"name": "StatefulPartitionedCall/tf_esm_model/esm/encoder/layer_._1/attention/self/transpose_2/perm", "shape": [4], "dtype": "int32"}, {"name": "StatefulPartitionedCall/tf_esm_model/esm/encoder/layer_._1/attention/self/mul/y", "shape": [], "dtype": "float32"}, {"name": "StatefulPartitionedCall/tf_esm_model/esm/encoder/layer_._1/attention/self/rotary_embeddings/strided_slice_4/stack", "shape": [1], "dtype": "int32"}, {"name": "StatefulPartitionedCall/tf_esm_model/esm/encoder/layer_._1/attention/self/rotary_embeddings/strided_slice_4/stack_1", "shape": [1], "dtype": "int32"}, {"name": "StatefulPartitionedCall/tf_esm_model/esm/encoder/layer_._1/attention/self/rotary_embeddings/strided_slice_4/stack_2", "shape": [1], "dtype": "int32"}, {"name": "StatefulPartitionedCall/tf_esm_model/esm/encoder/layer_._1/attention/self/rotary_embeddings/strided_slice_5/stack_1/3", "shape": [], "dtype": "int32"}, {"name": "StatefulPartitionedCall/tf_esm_model/esm/encoder/layer_._1/attention/self/rotary_embeddings/strided_slice_5/stack_2", "shape": [4], "dtype": "int32"}, {"name": "StatefulPartitionedCall/tf_esm_model/esm/encoder/layer_._1/attention/self/rotary_embeddings/strided_slice_7/stack", "shape": [4], "dtype": "int32"}, {"name": "StatefulPartitionedCall/tf_esm_model/esm/encoder/layer_._1/attention/self/rotary_embeddings/strided_slice_7/stack_1/0", "shape": [], "dtype": "int32"}, {"name": "StatefulPartitionedCall/tf_esm_model/esm/encoder/layer_._1/attention/self/rotary_embeddings/strided_slice_7/stack_1/1", "shape": [], "dtype": "int32"}, {"name": "StatefulPartitionedCall/tf_esm_model/esm/encoder/layer_._1/attention/self/rotary_embeddings/strided_slice_6/stack", "shape": [1], "dtype": "int32"}, {"name": "StatefulPartitionedCall/tf_esm_model/esm/encoder/layer_._1/attention/self/rotary_embeddings/strided_slice_6/stack_1", "shape": [1], "dtype": "int32"}, {"name": "StatefulPartitionedCall/tf_esm_model/esm/encoder/layer_._1/attention/self/rotary_embeddings/strided_slice_6/stack_2", "shape": [1], "dtype": "int32"}, {"name": "StatefulPartitionedCall/tf_esm_model/esm/encoder/layer_._1/attention/self/rotary_embeddings/strided_slice_7/stack_1/3", "shape": [], "dtype": "int32"}, {"name": "StatefulPartitionedCall/tf_esm_model/esm/encoder/layer_._1/attention/self/rotary_embeddings/strided_slice_7/stack_2", "shape": [4], "dtype": "int32"}, {"name": "StatefulPartitionedCall/tf_esm_model/esm/encoder/layer_._1/attention/self/rotary_embeddings/split_1/split_dim", "shape": [], "dtype": "int32"}, {"name": "StatefulPartitionedCall/tf_esm_model/esm/encoder/layer_._1/attention/self/rotary_embeddings/concat_2/axis", "shape": [], "dtype": "int32"}, {"name": "StatefulPartitionedCall/tf_esm_model/esm/encoder/layer_._1/attention/self/rotary_embeddings/range/start", "shape": [], "dtype": "float32"}, {"name": "StatefulPartitionedCall/tf_esm_model/esm/encoder/layer_._1/attention/self/rotary_embeddings/strided_slice/stack", "shape": [1], "dtype": "int32"}, {"name": "StatefulPartitionedCall/tf_esm_model/esm/encoder/layer_._1/attention/self/rotary_embeddings/strided_slice/stack_1", "shape": [1], "dtype": "int32"}, {"name": "StatefulPartitionedCall/tf_esm_model/esm/encoder/layer_._1/attention/self/rotary_embeddings/strided_slice/stack_2", "shape": [1], "dtype": "int32"}, {"name": "StatefulPartitionedCall/tf_esm_model/esm/encoder/layer_._1/attention/self/rotary_embeddings/range/delta", "shape": [], "dtype": "float32"}, {"name": "StatefulPartitionedCall/tf_esm_model/esm/encoder/layer_._1/attention/self/rotary_embeddings/einsum/Einsum/ReadVariableOp", "shape": [8], "dtype": "float32"}, {"name": "StatefulPartitionedCall/tf_esm_model/esm/encoder/layer_._1/attention/self/rotary_embeddings/concat/axis", "shape": [], "dtype": "int32"}, {"name": "StatefulPartitionedCall/tf_esm_model/esm/encoder/layer_._1/attention/self/rotary_embeddings/strided_slice_1/stack", "shape": [4], "dtype": "int32"}, {"name": "StatefulPartitionedCall/tf_esm_model/esm/encoder/layer_._1/attention/self/rotary_embeddings/strided_slice_1/stack_1", "shape": [4], "dtype": "int32"}, {"name": "StatefulPartitionedCall/tf_esm_model/esm/encoder/layer_._1/attention/self/rotary_embeddings/strided_slice_1/stack_2", "shape": [4], "dtype": "int32"}, {"name": "StatefulPartitionedCall/tf_esm_model/esm/encoder/layer_._1/attention/self/rotary_embeddings/strided_slice_9/stack", "shape": [4], "dtype": "int32"}, {"name": "StatefulPartitionedCall/tf_esm_model/esm/encoder/layer_._1/attention/self/rotary_embeddings/strided_slice_9/stack_1/0", "shape": [], "dtype": "int32"}, {"name": "StatefulPartitionedCall/tf_esm_model/esm/encoder/layer_._1/attention/self/rotary_embeddings/strided_slice_9/stack_1/1", "shape": [], "dtype": "int32"}, {"name": "StatefulPartitionedCall/tf_esm_model/esm/encoder/layer_._1/attention/self/strided_slice/stack", "shape": [1], "dtype": "int32"}, {"name": "StatefulPartitionedCall/tf_esm_model/esm/encoder/layer_._1/attention/self/strided_slice/stack_1", "shape": [1], "dtype": "int32"}, {"name": "StatefulPartitionedCall/tf_esm_model/esm/encoder/layer_._1/attention/self/strided_slice/stack_2", "shape": [1], "dtype": "int32"}, {"name": "StatefulPartitionedCall/tf_esm_model/esm/encoder/layer_._1/attention/self/key/Tensordot/Const", "shape": [1], "dtype": "int32"}, {"name": "StatefulPartitionedCall/tf_esm_model/esm/encoder/layer_._1/attention/self/key/Tensordot/axes", "shape": [1], "dtype": "int32"}, {"name": "StatefulPartitionedCall/tf_esm_model/esm/encoder/layer_._1/attention/self/key/Tensordot/GatherV2_1/axis", "shape": [], "dtype": "int32"}, {"name": "StatefulPartitionedCall/tf_esm_model/esm/encoder/layer_._1/attention/self/key/Tensordot/Const_1", "shape": [1], "dtype": "int32"}, {"name": "StatefulPartitionedCall/tf_esm_model/esm/encoder/layer_._1/attention/self/key/Tensordot/ReadVariableOp", "shape": [320, 320], "dtype": "float32"}, {"name": "StatefulPartitionedCall/tf_esm_model/esm/encoder/layer_._1/attention/self/key/Tensordot/free", "shape": [2], "dtype": "int32"}, {"name": "StatefulPartitionedCall/tf_esm_model/esm/encoder/layer_._1/attention/self/key/Tensordot/GatherV2/axis", "shape": [], "dtype": "int32"}, {"name": "StatefulPartitionedCall/tf_esm_model/esm/encoder/layer_._1/attention/self/key/Tensordot/Const_2", "shape": [1], "dtype": "int32"}, {"name": "StatefulPartitionedCall/tf_esm_model/esm/encoder/layer_._1/attention/self/key/Tensordot/concat_1/axis", "shape": [], "dtype": "int32"}, {"name": "StatefulPartitionedCall/tf_esm_model/esm/encoder/layer_._1/attention/self/key/BiasAdd/ReadVariableOp", "shape": [320], "dtype": "float32"}, {"name": "StatefulPartitionedCall/tf_esm_model/esm/encoder/layer_._1/attention/self/strided_slice_1/stack", "shape": [1], "dtype": "int32"}, {"name": "StatefulPartitionedCall/tf_esm_model/esm/encoder/layer_._1/attention/self/strided_slice_1/stack_1", "shape": [1], "dtype": "int32"}, {"name": "StatefulPartitionedCall/tf_esm_model/esm/encoder/layer_._1/attention/self/strided_slice_1/stack_2", "shape": [1], "dtype": "int32"}, {"name": "StatefulPartitionedCall/tf_esm_model/esm/encoder/layer_._1/attention/self/Reshape/shape/2", "shape": [], "dtype": "int32"}, {"name": "StatefulPartitionedCall/tf_esm_model/esm/encoder/layer_._1/attention/self/Reshape/shape/3", "shape": [], "dtype": "int32"}, {"name": "StatefulPartitionedCall/tf_esm_model/esm/encoder/layer_._1/attention/self/transpose/perm", "shape": [4], "dtype": "int32"}, {"name": "StatefulPartitionedCall/tf_esm_model/esm/encoder/layer_._1/attention/self/rotary_embeddings/strided_slice_8/stack", "shape": [1], "dtype": "int32"}, {"name": "StatefulPartitionedCall/tf_esm_model/esm/encoder/layer_._1/attention/self/rotary_embeddings/strided_slice_8/stack_1", "shape": [1], "dtype": "int32"}, {"name": "StatefulPartitionedCall/tf_esm_model/esm/encoder/layer_._1/attention/self/rotary_embeddings/strided_slice_8/stack_2", "shape": [1], "dtype": "int32"}, {"name": "StatefulPartitionedCall/tf_esm_model/esm/encoder/layer_._1/attention/self/rotary_embeddings/strided_slice_9/stack_1/3", "shape": [], "dtype": "int32"}, {"name": "StatefulPartitionedCall/tf_esm_model/esm/encoder/layer_._1/attention/self/rotary_embeddings/strided_slice_9/stack_2", "shape": [4], "dtype": "int32"}, {"name": "StatefulPartitionedCall/tf_esm_model/esm/encoder/layer_._1/attention/self/add_1/y", "shape": [], "dtype": "float32"}, {"name": "StatefulPartitionedCall/tf_esm_model/esm/encoder/layer_._1/attention/self/strided_slice_2/stack", "shape": [1], "dtype": "int32"}, {"name": "StatefulPartitionedCall/tf_esm_model/esm/encoder/layer_._1/attention/self/strided_slice_2/stack_1", "shape": [1], "dtype": "int32"}, {"name": "StatefulPartitionedCall/tf_esm_model/esm/encoder/layer_._1/attention/self/strided_slice_2/stack_2", "shape": [1], "dtype": "int32"}, {"name": "StatefulPartitionedCall/tf_esm_model/esm/encoder/layer_._1/attention/self/value/Tensordot/Const", "shape": [1], "dtype": "int32"}, {"name": "StatefulPartitionedCall/tf_esm_model/esm/encoder/layer_._1/attention/self/value/Tensordot/axes", "shape": [1], "dtype": "int32"}, {"name": "StatefulPartitionedCall/tf_esm_model/esm/encoder/layer_._1/attention/self/value/Tensordot/GatherV2_1/axis", "shape": [], "dtype": "int32"}, {"name": "StatefulPartitionedCall/tf_esm_model/esm/encoder/layer_._1/attention/self/value/Tensordot/Const_1", "shape": [1], "dtype": "int32"}, {"name": "StatefulPartitionedCall/tf_esm_model/esm/encoder/layer_._1/attention/self/value/Tensordot/ReadVariableOp", "shape": [320, 320], "dtype": "float32"}, {"name": "StatefulPartitionedCall/tf_esm_model/esm/encoder/layer_._1/attention/LayerNorm/batchnorm/ReadVariableOp", "shape": [320], "dtype": "float32"}, {"name": "StatefulPartitionedCall/tf_esm_model/esm/encoder/layer_._1/attention/LayerNorm/moments/mean/reduction_indices", "shape": [1], "dtype": "int32"}, {"name": "StatefulPartitionedCall/tf_esm_model/esm/encoder/layer_._1/attention/LayerNorm/moments/variance/reduction_indices", "shape": [1], "dtype": "int32"}, {"name": "StatefulPartitionedCall/tf_esm_model/esm/encoder/layer_._1/attention/LayerNorm/batchnorm/add/y", "shape": [], "dtype": "float32"}, {"name": "StatefulPartitionedCall/tf_esm_model/esm/encoder/layer_._1/attention/LayerNorm/batchnorm/mul/ReadVariableOp", "shape": [320], "dtype": "float32"}, {"name": "StatefulPartitionedCall/tf_esm_model/esm/encoder/layer_._1/attention/self/value/Tensordot/free", "shape": [2], "dtype": "int32"}, {"name": "StatefulPartitionedCall/tf_esm_model/esm/encoder/layer_._1/attention/self/value/Tensordot/GatherV2/axis", "shape": [], "dtype": "int32"}, {"name": "StatefulPartitionedCall/tf_esm_model/esm/encoder/layer_._1/attention/self/value/Tensordot/Const_2", "shape": [1], "dtype": "int32"}, {"name": "StatefulPartitionedCall/tf_esm_model/esm/encoder/layer_._1/attention/self/value/Tensordot/concat_1/axis", "shape": [], "dtype": "int32"}, {"name": "StatefulPartitionedCall/tf_esm_model/esm/encoder/layer_._1/attention/self/value/BiasAdd/ReadVariableOp", "shape": [320], "dtype": "float32"}, {"name": "StatefulPartitionedCall/tf_esm_model/esm/encoder/layer_._1/attention/self/strided_slice_3/stack", "shape": [1], "dtype": "int32"}, {"name": "StatefulPartitionedCall/tf_esm_model/esm/encoder/layer_._1/attention/self/strided_slice_3/stack_1", "shape": [1], "dtype": "int32"}, {"name": "StatefulPartitionedCall/tf_esm_model/esm/encoder/layer_._1/attention/self/strided_slice_3/stack_2", "shape": [1], "dtype": "int32"}, {"name": "StatefulPartitionedCall/tf_esm_model/esm/encoder/layer_._1/attention/self/Reshape_1/shape/2", "shape": [], "dtype": "int32"}, {"name": "StatefulPartitionedCall/tf_esm_model/esm/encoder/layer_._1/attention/self/Reshape_1/shape/3", "shape": [], "dtype": "int32"}, {"name": "StatefulPartitionedCall/tf_esm_model/esm/encoder/layer_._1/attention/self/transpose_1/perm", "shape": [4], "dtype": "int32"}, {"name": "StatefulPartitionedCall/tf_esm_model/esm/encoder/layer_._1/attention/self/transpose_3/perm", "shape": [4], "dtype": "int32"}, {"name": "StatefulPartitionedCall/tf_esm_model/esm/encoder/layer_._1/attention/self/strided_slice_7/stack", "shape": [1], "dtype": "int32"}, {"name": "StatefulPartitionedCall/tf_esm_model/esm/encoder/layer_._1/attention/self/strided_slice_7/stack_1", "shape": [1], "dtype": "int32"}, {"name": "StatefulPartitionedCall/tf_esm_model/esm/encoder/layer_._1/attention/self/strided_slice_7/stack_2", "shape": [1], "dtype": "int32"}, {"name": "StatefulPartitionedCall/tf_esm_model/esm/encoder/layer_._1/attention/self/Reshape_3/shape/2", "shape": [], "dtype": "int32"}, {"name": "StatefulPartitionedCall/tf_esm_model/esm/encoder/layer_._1/attention/output/dense/Tensordot/free", "shape": [2], "dtype": "int32"}, {"name": "StatefulPartitionedCall/tf_esm_model/esm/encoder/layer_._1/attention/output/dense/Tensordot/GatherV2/axis", "shape": [], "dtype": "int32"}, {"name": "StatefulPartitionedCall/tf_esm_model/esm/encoder/layer_._1/attention/output/dense/Tensordot/Const_2", "shape": [1], "dtype": "int32"}, {"name": "StatefulPartitionedCall/tf_esm_model/esm/encoder/layer_._1/attention/output/dense/Tensordot/concat_1/axis", "shape": [], "dtype": "int32"}, {"name": "StatefulPartitionedCall/tf_esm_model/esm/encoder/layer_._1/attention/output/dense/BiasAdd/ReadVariableOp", "shape": [320], "dtype": "float32"}, {"name": "StatefulPartitionedCall/tf_esm_model/esm/encoder/layer_._0/output/dense/Tensordot/Const", "shape": [1], "dtype": "int32"}, {"name": "StatefulPartitionedCall/tf_esm_model/esm/encoder/layer_._0/output/dense/Tensordot/axes", "shape": [1], "dtype": "int32"}, {"name": "StatefulPartitionedCall/tf_esm_model/esm/encoder/layer_._0/output/dense/Tensordot/GatherV2_1/axis", "shape": [], "dtype": "int32"}, {"name": "StatefulPartitionedCall/tf_esm_model/esm/encoder/layer_._0/output/dense/Tensordot/Const_1", "shape": [1], "dtype": "int32"}, {"name": "StatefulPartitionedCall/tf_esm_model/esm/encoder/layer_._0/output/dense/Tensordot/ReadVariableOp", "shape": [1280, 320], "dtype": "float32"}, {"name": "StatefulPartitionedCall/tf_esm_model/esm/encoder/layer_._0/intermediate/Gelu/mul/x", "shape": [], "dtype": "float32"}, {"name": "StatefulPartitionedCall/tf_esm_model/esm/encoder/layer_._0/intermediate/Gelu/add/x", "shape": [], "dtype": "float32"}, {"name": "StatefulPartitionedCall/tf_esm_model/esm/encoder/layer_._0/intermediate/dense/Tensordot/Const", "shape": [1], "dtype": "int32"}, {"name": "StatefulPartitionedCall/tf_esm_model/esm/encoder/layer_._0/intermediate/dense/Tensordot/axes", "shape": [1], "dtype": "int32"}, {"name": "StatefulPartitionedCall/tf_esm_model/esm/encoder/layer_._0/intermediate/dense/Tensordot/GatherV2_1/axis", "shape": [], "dtype": "int32"}, {"name": "StatefulPartitionedCall/tf_esm_model/esm/encoder/layer_._0/intermediate/dense/Tensordot/Const_1", "shape": [1], "dtype": "int32"}, {"name": "StatefulPartitionedCall/tf_esm_model/esm/encoder/layer_._0/intermediate/dense/Tensordot/ReadVariableOp", "shape": [320, 1280], "dtype": "float32"}, {"name": "StatefulPartitionedCall/tf_esm_model/esm/encoder/layer_._0/LayerNorm/batchnorm/ReadVariableOp", "shape": [320], "dtype": "float32"}, {"name": "StatefulPartitionedCall/tf_esm_model/esm/encoder/layer_._0/LayerNorm/moments/mean/reduction_indices", "shape": [1], "dtype": "int32"}, {"name": "StatefulPartitionedCall/tf_esm_model/esm/encoder/layer_._0/LayerNorm/moments/variance/reduction_indices", "shape": [1], "dtype": "int32"}, {"name": "StatefulPartitionedCall/tf_esm_model/esm/encoder/layer_._0/LayerNorm/batchnorm/add/y", "shape": [], "dtype": "float32"}, {"name": "StatefulPartitionedCall/tf_esm_model/esm/encoder/layer_._0/LayerNorm/batchnorm/mul/ReadVariableOp", "shape": [320], "dtype": "float32"}, {"name": "StatefulPartitionedCall/tf_esm_model/esm/encoder/layer_._0/intermediate/dense/Tensordot/free", "shape": [2], "dtype": "int32"}, {"name": "StatefulPartitionedCall/tf_esm_model/esm/encoder/layer_._0/intermediate/dense/Tensordot/GatherV2/axis", "shape": [], "dtype": "int32"}, {"name": "StatefulPartitionedCall/tf_esm_model/esm/encoder/layer_._0/intermediate/dense/Tensordot/Const_2", "shape": [1], "dtype": "int32"}, {"name": "StatefulPartitionedCall/tf_esm_model/esm/encoder/layer_._0/intermediate/dense/Tensordot/concat_1/axis", "shape": [], "dtype": "int32"}, {"name": "StatefulPartitionedCall/tf_esm_model/esm/encoder/layer_._0/intermediate/dense/BiasAdd/ReadVariableOp", "shape": [1280], "dtype": "float32"}, {"name": "ConstantFolding/StatefulPartitionedCall/tf_esm_model/esm/encoder/layer_._0/intermediate/Gelu/truediv_recip", "shape": [], "dtype": "float32"}, {"name": "StatefulPartitionedCall/tf_esm_model/esm/encoder/layer_._0/output/dense/Tensordot/free", "shape": [2], "dtype": "int32"}, {"name": "StatefulPartitionedCall/tf_esm_model/esm/encoder/layer_._0/output/dense/Tensordot/GatherV2/axis", "shape": [], "dtype": "int32"}, {"name": "StatefulPartitionedCall/tf_esm_model/esm/encoder/layer_._0/output/dense/Tensordot/Const_2", "shape": [1], "dtype": "int32"}, {"name": "StatefulPartitionedCall/tf_esm_model/esm/encoder/layer_._0/output/dense/Tensordot/concat_1/axis", "shape": [], "dtype": "int32"}, {"name": "StatefulPartitionedCall/tf_esm_model/esm/encoder/layer_._0/output/dense/BiasAdd/ReadVariableOp", "shape": [320], "dtype": "float32"}, {"name": "StatefulPartitionedCall/tf_esm_model/esm/encoder/layer_._0/attention/output/dense/Tensordot/Const", "shape": [1], "dtype": "int32"}, {"name": "StatefulPartitionedCall/tf_esm_model/esm/encoder/layer_._0/attention/output/dense/Tensordot/axes", "shape": [1], "dtype": "int32"}, {"name": "StatefulPartitionedCall/tf_esm_model/esm/encoder/layer_._0/attention/output/dense/Tensordot/GatherV2_1/axis", "shape": [], "dtype": "int32"}, {"name": "StatefulPartitionedCall/tf_esm_model/esm/encoder/layer_._0/attention/output/dense/Tensordot/Const_1", "shape": [1], "dtype": "int32"}, {"name": "StatefulPartitionedCall/tf_esm_model/esm/encoder/layer_._0/attention/output/dense/Tensordot/ReadVariableOp", "shape": [320, 320], "dtype": "float32"}, {"name": "StatefulPartitionedCall/tf_esm_model/esm/encoder/layer_._0/attention/self/strided_slice_6/stack", "shape": [1], "dtype": "int32"}, {"name": "StatefulPartitionedCall/tf_esm_model/esm/encoder/layer_._0/attention/self/strided_slice_6/stack_1", "shape": [1], "dtype": "int32"}, {"name": "StatefulPartitionedCall/tf_esm_model/esm/encoder/layer_._0/attention/self/strided_slice_6/stack_2", "shape": [1], "dtype": "int32"}, {"name": "StatefulPartitionedCall/tf_esm_model/esm/encoder/layer_._0/attention/self/rotary_embeddings/strided_slice_3/stack", "shape": [4], "dtype": "int32"}, {"name": "StatefulPartitionedCall/tf_esm_model/esm/encoder/layer_._0/attention/self/rotary_embeddings/strided_slice_3/stack_1/0", "shape": [], "dtype": "int32"}, {"name": "StatefulPartitionedCall/tf_esm_model/esm/encoder/layer_._0/attention/self/rotary_embeddings/strided_slice_3/stack_1/1", "shape": [], "dtype": "int32"}, {"name": "StatefulPartitionedCall/tf_esm_model/esm/encoder/layer_._0/attention/self/rotary_embeddings/strided_slice_2/stack", "shape": [1], "dtype": "int32"}, {"name": "StatefulPartitionedCall/tf_esm_model/esm/encoder/layer_._0/attention/self/rotary_embeddings/strided_slice_2/stack_1", "shape": [1], "dtype": "int32"}, {"name": "StatefulPartitionedCall/tf_esm_model/esm/encoder/layer_._0/attention/self/rotary_embeddings/strided_slice_2/stack_2", "shape": [1], "dtype": "int32"}, {"name": "StatefulPartitionedCall/tf_esm_model/esm/encoder/layer_._0/attention/self/rotary_embeddings/strided_slice_3/stack_1/3", "shape": [], "dtype": "int32"}, {"name": "StatefulPartitionedCall/tf_esm_model/esm/encoder/layer_._0/attention/self/rotary_embeddings/strided_slice_3/stack_2", "shape": [4], "dtype": "int32"}, {"name": "StatefulPartitionedCall/tf_esm_model/esm/encoder/layer_._0/attention/self/rotary_embeddings/split/split_dim", "shape": [], "dtype": "int32"}, {"name": "StatefulPartitionedCall/tf_esm_model/esm/encoder/layer_._0/attention/self/rotary_embeddings/concat_1/axis", "shape": [], "dtype": "int32"}, {"name": "StatefulPartitionedCall/tf_esm_model/esm/encoder/layer_._0/attention/self/rotary_embeddings/strided_slice_5/stack", "shape": [4], "dtype": "int32"}, {"name": "StatefulPartitionedCall/tf_esm_model/esm/encoder/layer_._0/attention/self/rotary_embeddings/strided_slice_5/stack_1/0", "shape": [], "dtype": "int32"}, {"name": "StatefulPartitionedCall/tf_esm_model/esm/encoder/layer_._0/attention/self/rotary_embeddings/strided_slice_5/stack_1/1", "shape": [], "dtype": "int32"}, {"name": "StatefulPartitionedCall/tf_esm_model/esm/encoder/layer_._0/attention/self/strided_slice_4/stack", "shape": [1], "dtype": "int32"}, {"name": "StatefulPartitionedCall/tf_esm_model/esm/encoder/layer_._0/attention/self/strided_slice_4/stack_1", "shape": [1], "dtype": "int32"}, {"name": "StatefulPartitionedCall/tf_esm_model/esm/encoder/layer_._0/attention/self/strided_slice_4/stack_2", "shape": [1], "dtype": "int32"}, {"name": "StatefulPartitionedCall/tf_esm_model/esm/encoder/layer_._0/attention/self/query/Tensordot/Const", "shape": [1], "dtype": "int32"}, {"name": "StatefulPartitionedCall/tf_esm_model/esm/encoder/layer_._0/attention/self/query/Tensordot/axes", "shape": [1], "dtype": "int32"}, {"name": "StatefulPartitionedCall/tf_esm_model/esm/encoder/layer_._0/attention/self/query/Tensordot/GatherV2_1/axis", "shape": [], "dtype": "int32"}, {"name": "StatefulPartitionedCall/tf_esm_model/esm/encoder/layer_._0/attention/self/query/Tensordot/Const_1", "shape": [1], "dtype": "int32"}, {"name": "StatefulPartitionedCall/tf_esm_model/esm/encoder/layer_._0/attention/self/query/Tensordot/ReadVariableOp", "shape": [320, 320], "dtype": "float32"}, {"name": "StatefulPartitionedCall/tf_esm_model/esm/encoder/layer_._0/attention/self/query/Tensordot/free", "shape": [2], "dtype": "int32"}, {"name": "StatefulPartitionedCall/tf_esm_model/esm/encoder/layer_._0/attention/self/query/Tensordot/GatherV2/axis", "shape": [], "dtype": "int32"}, {"name": "StatefulPartitionedCall/tf_esm_model/esm/encoder/layer_._0/attention/self/query/Tensordot/Const_2", "shape": [1], "dtype": "int32"}, {"name": "StatefulPartitionedCall/tf_esm_model/esm/encoder/layer_._0/attention/self/query/Tensordot/concat_1/axis", "shape": [], "dtype": "int32"}, {"name": "StatefulPartitionedCall/tf_esm_model/esm/encoder/layer_._0/attention/self/query/BiasAdd/ReadVariableOp", "shape": [320], "dtype": "float32"}, {"name": "StatefulPartitionedCall/tf_esm_model/esm/encoder/layer_._0/attention/self/strided_slice_5/stack", "shape": [1], "dtype": "int32"}, {"name": "StatefulPartitionedCall/tf_esm_model/esm/encoder/layer_._0/attention/self/strided_slice_5/stack_1", "shape": [1], "dtype": "int32"}, {"name": "StatefulPartitionedCall/tf_esm_model/esm/encoder/layer_._0/attention/self/strided_slice_5/stack_2", "shape": [1], "dtype": "int32"}, {"name": "StatefulPartitionedCall/tf_esm_model/esm/encoder/layer_._0/attention/self/Reshape_2/shape/2", "shape": [], "dtype": "int32"}, {"name": "StatefulPartitionedCall/tf_esm_model/esm/encoder/layer_._0/attention/self/Reshape_2/shape/3", "shape": [], "dtype": "int32"}, {"name": "StatefulPartitionedCall/tf_esm_model/esm/encoder/layer_._0/attention/self/transpose_2/perm", "shape": [4], "dtype": "int32"}, {"name": "StatefulPartitionedCall/tf_esm_model/esm/encoder/layer_._0/attention/self/mul/y", "shape": [], "dtype": "float32"}, {"name": "StatefulPartitionedCall/tf_esm_model/esm/encoder/layer_._0/attention/self/rotary_embeddings/strided_slice_4/stack", "shape": [1], "dtype": "int32"}, {"name": "StatefulPartitionedCall/tf_esm_model/esm/encoder/layer_._0/attention/self/rotary_embeddings/strided_slice_4/stack_1", "shape": [1], "dtype": "int32"}, {"name": "StatefulPartitionedCall/tf_esm_model/esm/encoder/layer_._0/attention/self/rotary_embeddings/strided_slice_4/stack_2", "shape": [1], "dtype": "int32"}, {"name": "StatefulPartitionedCall/tf_esm_model/esm/encoder/layer_._0/attention/self/rotary_embeddings/strided_slice_5/stack_1/3", "shape": [], "dtype": "int32"}, {"name": "StatefulPartitionedCall/tf_esm_model/esm/encoder/layer_._0/attention/self/rotary_embeddings/strided_slice_5/stack_2", "shape": [4], "dtype": "int32"}, {"name": "StatefulPartitionedCall/tf_esm_model/esm/encoder/layer_._0/attention/self/rotary_embeddings/strided_slice_7/stack", "shape": [4], "dtype": "int32"}, {"name": "StatefulPartitionedCall/tf_esm_model/esm/encoder/layer_._0/attention/self/rotary_embeddings/strided_slice_7/stack_1/0", "shape": [], "dtype": "int32"}, {"name": "StatefulPartitionedCall/tf_esm_model/esm/encoder/layer_._0/attention/self/rotary_embeddings/strided_slice_7/stack_1/1", "shape": [], "dtype": "int32"}, {"name": "StatefulPartitionedCall/tf_esm_model/esm/encoder/layer_._0/attention/self/rotary_embeddings/strided_slice_6/stack", "shape": [1], "dtype": "int32"}, {"name": "StatefulPartitionedCall/tf_esm_model/esm/encoder/layer_._0/attention/self/rotary_embeddings/strided_slice_6/stack_1", "shape": [1], "dtype": "int32"}, {"name": "StatefulPartitionedCall/tf_esm_model/esm/encoder/layer_._0/attention/self/rotary_embeddings/strided_slice_6/stack_2", "shape": [1], "dtype": "int32"}, {"name": "StatefulPartitionedCall/tf_esm_model/esm/encoder/layer_._0/attention/self/rotary_embeddings/strided_slice_7/stack_1/3", "shape": [], "dtype": "int32"}, {"name": "StatefulPartitionedCall/tf_esm_model/esm/encoder/layer_._0/attention/self/rotary_embeddings/strided_slice_7/stack_2", "shape": [4], "dtype": "int32"}, {"name": "StatefulPartitionedCall/tf_esm_model/esm/encoder/layer_._0/attention/self/rotary_embeddings/split_1/split_dim", "shape": [], "dtype": "int32"}, {"name": "StatefulPartitionedCall/tf_esm_model/esm/encoder/layer_._0/attention/self/rotary_embeddings/concat_2/axis", "shape": [], "dtype": "int32"}, {"name": "StatefulPartitionedCall/tf_esm_model/esm/encoder/layer_._0/attention/self/rotary_embeddings/range/start", "shape": [], "dtype": "float32"}, {"name": "StatefulPartitionedCall/tf_esm_model/esm/encoder/layer_._0/attention/self/rotary_embeddings/strided_slice/stack", "shape": [1], "dtype": "int32"}, {"name": "StatefulPartitionedCall/tf_esm_model/esm/encoder/layer_._0/attention/self/rotary_embeddings/strided_slice/stack_1", "shape": [1], "dtype": "int32"}, {"name": "StatefulPartitionedCall/tf_esm_model/esm/encoder/layer_._0/attention/self/rotary_embeddings/strided_slice/stack_2", "shape": [1], "dtype": "int32"}, {"name": "StatefulPartitionedCall/tf_esm_model/esm/encoder/layer_._0/attention/self/rotary_embeddings/range/delta", "shape": [], "dtype": "float32"}, {"name": "StatefulPartitionedCall/tf_esm_model/esm/encoder/layer_._0/attention/self/rotary_embeddings/einsum/Einsum/ReadVariableOp", "shape": [8], "dtype": "float32"}, {"name": "StatefulPartitionedCall/tf_esm_model/esm/encoder/layer_._0/attention/self/rotary_embeddings/concat/axis", "shape": [], "dtype": "int32"}, {"name": "StatefulPartitionedCall/tf_esm_model/esm/encoder/layer_._0/attention/self/rotary_embeddings/strided_slice_1/stack", "shape": [4], "dtype": "int32"}, {"name": "StatefulPartitionedCall/tf_esm_model/esm/encoder/layer_._0/attention/self/rotary_embeddings/strided_slice_1/stack_1", "shape": [4], "dtype": "int32"}, {"name": "StatefulPartitionedCall/tf_esm_model/esm/encoder/layer_._0/attention/self/rotary_embeddings/strided_slice_1/stack_2", "shape": [4], "dtype": "int32"}, {"name": "StatefulPartitionedCall/tf_esm_model/esm/encoder/layer_._0/attention/self/rotary_embeddings/strided_slice_9/stack", "shape": [4], "dtype": "int32"}, {"name": "StatefulPartitionedCall/tf_esm_model/esm/encoder/layer_._0/attention/self/rotary_embeddings/strided_slice_9/stack_1/0", "shape": [], "dtype": "int32"}, {"name": "StatefulPartitionedCall/tf_esm_model/esm/encoder/layer_._0/attention/self/rotary_embeddings/strided_slice_9/stack_1/1", "shape": [], "dtype": "int32"}, {"name": "StatefulPartitionedCall/tf_esm_model/esm/encoder/layer_._0/attention/self/strided_slice/stack", "shape": [1], "dtype": "int32"}, {"name": "StatefulPartitionedCall/tf_esm_model/esm/encoder/layer_._0/attention/self/strided_slice/stack_1", "shape": [1], "dtype": "int32"}, {"name": "StatefulPartitionedCall/tf_esm_model/esm/encoder/layer_._0/attention/self/strided_slice/stack_2", "shape": [1], "dtype": "int32"}, {"name": "StatefulPartitionedCall/tf_esm_model/esm/encoder/layer_._0/attention/self/key/Tensordot/Const", "shape": [1], "dtype": "int32"}, {"name": "StatefulPartitionedCall/tf_esm_model/esm/encoder/layer_._0/attention/self/key/Tensordot/axes", "shape": [1], "dtype": "int32"}, {"name": "StatefulPartitionedCall/tf_esm_model/esm/encoder/layer_._0/attention/self/key/Tensordot/GatherV2_1/axis", "shape": [], "dtype": "int32"}, {"name": "StatefulPartitionedCall/tf_esm_model/esm/encoder/layer_._0/attention/self/key/Tensordot/Const_1", "shape": [1], "dtype": "int32"}, {"name": "StatefulPartitionedCall/tf_esm_model/esm/encoder/layer_._0/attention/self/key/Tensordot/ReadVariableOp", "shape": [320, 320], "dtype": "float32"}, {"name": "StatefulPartitionedCall/tf_esm_model/esm/encoder/layer_._0/attention/self/key/Tensordot/free", "shape": [2], "dtype": "int32"}, {"name": "StatefulPartitionedCall/tf_esm_model/esm/encoder/layer_._0/attention/self/key/Tensordot/GatherV2/axis", "shape": [], "dtype": "int32"}, {"name": "StatefulPartitionedCall/tf_esm_model/esm/encoder/layer_._0/attention/self/key/Tensordot/Const_2", "shape": [1], "dtype": "int32"}, {"name": "StatefulPartitionedCall/tf_esm_model/esm/encoder/layer_._0/attention/self/key/Tensordot/concat_1/axis", "shape": [], "dtype": "int32"}, {"name": "StatefulPartitionedCall/tf_esm_model/esm/encoder/layer_._0/attention/self/key/BiasAdd/ReadVariableOp", "shape": [320], "dtype": "float32"}, {"name": "StatefulPartitionedCall/tf_esm_model/esm/encoder/layer_._0/attention/self/strided_slice_1/stack", "shape": [1], "dtype": "int32"}, {"name": "StatefulPartitionedCall/tf_esm_model/esm/encoder/layer_._0/attention/self/strided_slice_1/stack_1", "shape": [1], "dtype": "int32"}, {"name": "StatefulPartitionedCall/tf_esm_model/esm/encoder/layer_._0/attention/self/strided_slice_1/stack_2", "shape": [1], "dtype": "int32"}, {"name": "StatefulPartitionedCall/tf_esm_model/esm/encoder/layer_._0/attention/self/Reshape/shape/2", "shape": [], "dtype": "int32"}, {"name": "StatefulPartitionedCall/tf_esm_model/esm/encoder/layer_._0/attention/self/Reshape/shape/3", "shape": [], "dtype": "int32"}, {"name": "StatefulPartitionedCall/tf_esm_model/esm/encoder/layer_._0/attention/self/transpose/perm", "shape": [4], "dtype": "int32"}, {"name": "StatefulPartitionedCall/tf_esm_model/esm/encoder/layer_._0/attention/self/rotary_embeddings/strided_slice_8/stack", "shape": [1], "dtype": "int32"}, {"name": "StatefulPartitionedCall/tf_esm_model/esm/encoder/layer_._0/attention/self/rotary_embeddings/strided_slice_8/stack_1", "shape": [1], "dtype": "int32"}, {"name": "StatefulPartitionedCall/tf_esm_model/esm/encoder/layer_._0/attention/self/rotary_embeddings/strided_slice_8/stack_2", "shape": [1], "dtype": "int32"}, {"name": "StatefulPartitionedCall/tf_esm_model/esm/encoder/layer_._0/attention/self/rotary_embeddings/strided_slice_9/stack_1/3", "shape": [], "dtype": "int32"}, {"name": "StatefulPartitionedCall/tf_esm_model/esm/encoder/layer_._0/attention/self/rotary_embeddings/strided_slice_9/stack_2", "shape": [4], "dtype": "int32"}, {"name": "StatefulPartitionedCall/tf_esm_model/esm/encoder/layer_._0/attention/self/add_1/y", "shape": [], "dtype": "float32"}, {"name": "StatefulPartitionedCall/tf_esm_model/esm/Const", "shape": [], "dtype": "float32"}, {"name": "StatefulPartitionedCall/tf_esm_model/esm/strided_slice_2/stack", "shape": [1], "dtype": "int32"}, {"name": "StatefulPartitionedCall/tf_esm_model/esm/strided_slice_2/stack_1", "shape": [1], "dtype": "int32"}, {"name": "StatefulPartitionedCall/tf_esm_model/esm/strided_slice_2/stack_2", "shape": [1], "dtype": "int32"}, {"name": "StatefulPartitionedCall/tf_esm_model/esm/Reshape/shape/1", "shape": [], "dtype": "int32"}, {"name": "StatefulPartitionedCall/tf_esm_model/esm/Reshape/shape/2", "shape": [], "dtype": "int32"}, {"name": "StatefulPartitionedCall/tf_esm_model/esm/strided_slice_3/stack", "shape": [1], "dtype": "int32"}, {"name": "StatefulPartitionedCall/tf_esm_model/esm/strided_slice_3/stack_1", "shape": [1], "dtype": "int32"}, {"name": "StatefulPartitionedCall/tf_esm_model/esm/strided_slice_3/stack_2", "shape": [1], "dtype": "int32"}, {"name": "StatefulPartitionedCall/tf_esm_model/esm/Const_1", "shape": [], "dtype": "float32"}, {"name": "StatefulPartitionedCall/tf_esm_model/esm/encoder/layer_._0/attention/self/strided_slice_2/stack", "shape": [1], "dtype": "int32"}, {"name": "StatefulPartitionedCall/tf_esm_model/esm/encoder/layer_._0/attention/self/strided_slice_2/stack_1", "shape": [1], "dtype": "int32"}, {"name": "StatefulPartitionedCall/tf_esm_model/esm/encoder/layer_._0/attention/self/strided_slice_2/stack_2", "shape": [1], "dtype": "int32"}, {"name": "StatefulPartitionedCall/tf_esm_model/esm/encoder/layer_._0/attention/self/value/Tensordot/Const", "shape": [1], "dtype": "int32"}, {"name": "StatefulPartitionedCall/tf_esm_model/esm/encoder/layer_._0/attention/self/value/Tensordot/axes", "shape": [1], "dtype": "int32"}, {"name": "StatefulPartitionedCall/tf_esm_model/esm/encoder/layer_._0/attention/self/value/Tensordot/GatherV2_1/axis", "shape": [], "dtype": "int32"}, {"name": "StatefulPartitionedCall/tf_esm_model/esm/encoder/layer_._0/attention/self/value/Tensordot/Const_1", "shape": [1], "dtype": "int32"}, {"name": "StatefulPartitionedCall/tf_esm_model/esm/encoder/layer_._0/attention/self/value/Tensordot/ReadVariableOp", "shape": [320, 320], "dtype": "float32"}, {"name": "StatefulPartitionedCall/tf_esm_model/esm/encoder/layer_._0/attention/LayerNorm/batchnorm/ReadVariableOp", "shape": [320], "dtype": "float32"}, {"name": "StatefulPartitionedCall/tf_esm_model/esm/encoder/layer_._0/attention/LayerNorm/moments/mean/reduction_indices", "shape": [1], "dtype": "int32"}, {"name": "StatefulPartitionedCall/tf_esm_model/esm/encoder/layer_._0/attention/LayerNorm/moments/variance/reduction_indices", "shape": [1], "dtype": "int32"}, {"name": "StatefulPartitionedCall/tf_esm_model/esm/encoder/layer_._0/attention/LayerNorm/batchnorm/add/y", "shape": [], "dtype": "float32"}, {"name": "StatefulPartitionedCall/tf_esm_model/esm/encoder/layer_._0/attention/LayerNorm/batchnorm/mul/ReadVariableOp", "shape": [320], "dtype": "float32"}, {"name": "StatefulPartitionedCall/tf_esm_model/esm/encoder/layer_._0/attention/self/value/Tensordot/free", "shape": [2], "dtype": "int32"}, {"name": "StatefulPartitionedCall/tf_esm_model/esm/encoder/layer_._0/attention/self/value/Tensordot/GatherV2/axis", "shape": [], "dtype": "int32"}, {"name": "StatefulPartitionedCall/tf_esm_model/esm/encoder/layer_._0/attention/self/value/Tensordot/Const_2", "shape": [1], "dtype": "int32"}, {"name": "StatefulPartitionedCall/tf_esm_model/esm/encoder/layer_._0/attention/self/value/Tensordot/concat_1/axis", "shape": [], "dtype": "int32"}, {"name": "StatefulPartitionedCall/tf_esm_model/esm/encoder/layer_._0/attention/self/value/BiasAdd/ReadVariableOp", "shape": [320], "dtype": "float32"}, {"name": "StatefulPartitionedCall/tf_esm_model/esm/encoder/layer_._0/attention/self/strided_slice_3/stack", "shape": [1], "dtype": "int32"}, {"name": "StatefulPartitionedCall/tf_esm_model/esm/encoder/layer_._0/attention/self/strided_slice_3/stack_1", "shape": [1], "dtype": "int32"}, {"name": "StatefulPartitionedCall/tf_esm_model/esm/encoder/layer_._0/attention/self/strided_slice_3/stack_2", "shape": [1], "dtype": "int32"}, {"name": "StatefulPartitionedCall/tf_esm_model/esm/encoder/layer_._0/attention/self/Reshape_1/shape/2", "shape": [], "dtype": "int32"}, {"name": "StatefulPartitionedCall/tf_esm_model/esm/encoder/layer_._0/attention/self/Reshape_1/shape/3", "shape": [], "dtype": "int32"}, {"name": "StatefulPartitionedCall/tf_esm_model/esm/encoder/layer_._0/attention/self/transpose_1/perm", "shape": [4], "dtype": "int32"}, {"name": "StatefulPartitionedCall/tf_esm_model/esm/encoder/layer_._0/attention/self/transpose_3/perm", "shape": [4], "dtype": "int32"}, {"name": "StatefulPartitionedCall/tf_esm_model/esm/encoder/layer_._0/attention/self/strided_slice_7/stack", "shape": [1], "dtype": "int32"}, {"name": "StatefulPartitionedCall/tf_esm_model/esm/encoder/layer_._0/attention/self/strided_slice_7/stack_1", "shape": [1], "dtype": "int32"}, {"name": "StatefulPartitionedCall/tf_esm_model/esm/encoder/layer_._0/attention/self/strided_slice_7/stack_2", "shape": [1], "dtype": "int32"}, {"name": "StatefulPartitionedCall/tf_esm_model/esm/encoder/layer_._0/attention/self/Reshape_3/shape/2", "shape": [], "dtype": "int32"}, {"name": "StatefulPartitionedCall/tf_esm_model/esm/encoder/layer_._0/attention/output/dense/Tensordot/free", "shape": [2], "dtype": "int32"}, {"name": "StatefulPartitionedCall/tf_esm_model/esm/encoder/layer_._0/attention/output/dense/Tensordot/GatherV2/axis", "shape": [], "dtype": "int32"}, {"name": "StatefulPartitionedCall/tf_esm_model/esm/encoder/layer_._0/attention/output/dense/Tensordot/Const_2", "shape": [1], "dtype": "int32"}, {"name": "StatefulPartitionedCall/tf_esm_model/esm/encoder/layer_._0/attention/output/dense/Tensordot/concat_1/axis", "shape": [], "dtype": "int32"}, {"name": "StatefulPartitionedCall/tf_esm_model/esm/encoder/layer_._0/attention/output/dense/BiasAdd/ReadVariableOp", "shape": [320], "dtype": "float32"}, {"name": "StatefulPartitionedCall/tf_esm_model/esm/embeddings/Equal/y", "shape": [], "dtype": "int32"}, {"name": "StatefulPartitionedCall/tf_esm_model/esm/embeddings/strided_slice/stack", "shape": [3], "dtype": "int32"}, {"name": "StatefulPartitionedCall/tf_esm_model/esm/embeddings/strided_slice/stack_1", "shape": [3], "dtype": "int32"}, {"name": "StatefulPartitionedCall/tf_esm_model/esm/embeddings/strided_slice/stack_2", "shape": [3], "dtype": "int32"}, {"name": "StatefulPartitionedCall/tf_esm_model/esm/embeddings/SelectV2/t", "shape": [], "dtype": "float32"}, {"name": "unknown", "shape": [33, 320], "dtype": "float32"}, {"name": "StatefulPartitionedCall/tf_esm_model/esm/embeddings/word_embeddings/embedding_lookup/axis", "shape": [], "dtype": "int32"}, {"name": "StatefulPartitionedCall/tf_esm_model/esm/embeddings/mul_1/y", "shape": [], "dtype": "float32"}, {"name": "StatefulPartitionedCall/tf_esm_model/esm/embeddings/sub/x", "shape": [], "dtype": "float32"}, {"name": "StatefulPartitionedCall/tf_esm_model/esm/embeddings/Equal_1/y", "shape": [], "dtype": "int32"}, {"name": "StatefulPartitionedCall/tf_esm_model/esm/embeddings/count_nonzero/Sum/reduction_indices", "shape": [], "dtype": "int32"}, {"name": "StatefulPartitionedCall/tf_esm_model/esm/embeddings/Sum/reduction_indices", "shape": [], "dtype": "int32"}, {"name": "StatefulPartitionedCall/tf_esm_model/esm/embeddings/strided_slice_1/stack", "shape": [3], "dtype": "int32"}, {"name": "StatefulPartitionedCall/tf_esm_model/esm/embeddings/strided_slice_1/stack_1", "shape": [3], "dtype": "int32"}, {"name": "StatefulPartitionedCall/tf_esm_model/esm/embeddings/strided_slice_1/stack_2", "shape": [3], "dtype": "int32"}, {"name": "StatefulPartitionedCall/tf_esm_model/esm/embeddings/ExpandDims/dim", "shape": [], "dtype": "int32"}, {"name": "StatefulPartitionedCall/tf_esm_model/esm/encoder/emb_layer_norm_after/moments/mean/reduction_indices", "shape": [1], "dtype": "int32"}, {"name": "StatefulPartitionedCall/tf_esm_model/esm/encoder/emb_layer_norm_after/moments/variance/reduction_indices", "shape": [1], "dtype": "int32"}, {"name": "StatefulPartitionedCall/tf_esm_model/esm/encoder/emb_layer_norm_after/batchnorm/add/y", "shape": [], "dtype": "float32"}, {"name": "StatefulPartitionedCall/tf_esm_model/esm/encoder/emb_layer_norm_after/batchnorm/mul/ReadVariableOp", "shape": [320], "dtype": "float32"}, {"name": "StatefulPartitionedCall/tf_esm_model/esm/pooler/strided_slice/stack", "shape": [2], "dtype": "int32"}, {"name": "StatefulPartitionedCall/tf_esm_model/esm/pooler/strided_slice/stack_1", "shape": [2], "dtype": "int32"}, {"name": "StatefulPartitionedCall/tf_esm_model/esm/pooler/strided_slice/stack_2", "shape": [2], "dtype": "int32"}, {"name": "StatefulPartitionedCall/tf_esm_model/esm/pooler/dense/MatMul/ReadVariableOp", "shape": [320, 320], "dtype": "float32"}]}]}